models/model-doom.pth (torch, 78242 bytes, 27 tensors)

weight f4 [8, 1, 3, 3]
00000000: a137 e03f 26a8 81bf f0d0 c8be 0a09 563f
00000010: 7803 36be 38ed 7d3f 9656 91bf 0238 633f
00000020: b78f 24bf 5e24 3d3f 3efe 673c cd17 98bc
00000030: 13c5 d63e 273d 3f3f 66ec 513e f8b8 bdbe
00000040: cc5c 83be a3e6 b63e d452 c93f d604 8fbf
00000050: 93fd 8dbd 0873 883f 3ce7 a8bf 818f 88bf
00000060: 78fc 3f3f 5de0 81bd 943f 08bf 98ff 393e
00000070: 310f 953f f940 90bf b085 2fbf 6dd2 d83e
00000080: cc76 d5bf 99a1 1b3f ce12 0640 ece4 3ebf
00000090: 8465 2c3e 485c 793f fc4a cebd 90ce 6b3f
000000a0: 023f 653e 0a95 933e e98a c7be c582 a2bf
000000b0: 011c 543d f715 333f 77d2 dbbf c9f7 b63f
000000c0: 3c99 3d3f fc52 a2bd 54b6 f53f 3745 f2bf
000000d0: 258d 87bf a684 39bf 9dd4 273c a844 5dbf
000000e0: be8a e7be e391 743f d722 0cbe 12b8 643e
000000f0: 43ad 963f 7532 863e 0f48 42be d3e2 f73e
00000100: 76f2 983e 6208 babd 247f 3ebf cb21 b83e
00000110: 8dc3 dabf d6fe a9bf f1c5 933f cd29 233f
1.7516977 -1.012944 -0.39221907 0.8360754 -0.1777476 0.9919009 -1.1354549 0.88757336
-0.6428179 0.73883617 0.014159737 -0.018566037 0.4194723 0.74702686 0.20500335 -0.37055182
-0.25656736 0.35722837 1.5728402 -1.1173351 -0.06933131 1.0660105 -1.3195567 -1.0668794
0.7499461 -0.06341622 -0.5322201 0.18163908 1.1645261 -1.1269828 -0.68563366 0.42348042
-1.6676879 0.60793453 2.0948977 -0.7456806 0.168356 0.97406435 -0.10072896 0.92112064
0.22387317 0.28824645 -0.38973168 -1.2696158 0.05178452 0.6995539 -1.7173604 1.4294368
0.7406194 -0.07925984 1.9196267 -1.8927373 -1.0589949 -0.7246803 0.010243562 -0.86432886
-0.4522304 0.95535105 -0.13685165 0.22335842 1.1771625 0.2621037 -0.189728 0.4841524
0.29872483 -0.0908363 -0.7441275 0.35963282 -1.7090927 -1.3280895 1.1544782 0.6373566

weight f4 [8]
00000000: 84bd a03f 0c2b ac3f 14b2 b43f 948e a73f
00000010: ef07 a23f 16c2 fd3f 897e b23f 66d7 cb3f
1.2557836 1.3450637 1.4116845 1.3090386 1.2658671 1.9824855 1.3944865 1.5925109

bias f4 [8]
00000000: c6bf f8be e31f 51bc 597c f13b f8de 46bd
00000010: 07ea 08bf d94c 06bf 710d 58bf af18 b2bc
-0.48583812 -0.01276395 0.0073695597 -0.048552483 -0.534821 -0.5246101 -0.8439551 -0.021740286

running_mean f4 [8]
00000000: 9018 aa3e 7aac 0e3f af8d 78be b355 a83d
00000010: 4c23 813e 1a72 69be 2c09 a03e 8072 93be
0.33221865 0.5573193 -0.24272798 0.08219471 0.25222242 -0.22797433 0.31256998 -0.28798294

running_var f4 [8]
00000000: a70a e83c e33e 223d 7cbd 393d 3788 173d
00000010: 4065 0a3d e830 8b3d c7f7 143d 4ebe c13c
0.028325392 0.039610755 0.045346722 0.03699514 0.033787966 0.067964375 0.03636911 0.023650315

weight f4 [8, 8, 3, 3]
00000000: 8e76 873e ec7c 59be cad0 0b3e 5205 b83d
00000010: 4e72 2b3c a85d 0b3e 7543 773d bdb3 19bf
00000020: 5bd7 c1bd 4ac8 803e 1ec2 62be 78ab 49bf
00000030: 13d3 b13e 172a 4ebe 0af0 2ebe 6ffc ae3d
00000040: c5ea 97be f855 44bf b828 b8bd acf8 833f
00000050: fe1c 5b3f a78a 0bbf c6e8 a9be 0768 413e
00000060: a745 ca3e 2d30 f6be 2399 773e 61d4 ea3c
00000070: bc80 673f 7c21 5a3e 48fe 183e 740c b0be
00000080: 53a9 b0be feef 993c eee8 cf3e 3bbe 66bf
00000090: 030e 42be 26b7 4d3e 84eb c7be 1d53 de3d
000000a0: 0883 e1be b403 debd 6b42 023f fe97 eb3d
000000b0: a93e 48be c57b bdbe 7bab 26be 9b8d c93e
000000c0: 6843 4b3e cb8a dbbe 3fa6 23bf 6ec1 463b
000000d0: 9584 30bf 0a29 293d aa64 6c3e 1686 143e
000000e0: c974 343e 3d82 eb3e 3a71 83be 5c3b 15be
000000f0: ce0b 0bbf 8985 fdbe 8518 19be 97f7 ddbe
00000100: 727d 323e 6b06 ae3d a84a 973e 5626 38bf
00000110: e9a8 993e 84dc b53c d700 94be 08c7 083f
00000120: edb1 353e 58a0 37be 4089 02bf 607f a0be
00000130: b0af 55be 0c01 04bf f953 723d a953 123f
00000140: 7943 2abe 085a 343c c1a3 0ebf f75a dabe
00000150: 1577 eebd 35de 803d 070e 12be af2e 0ebf
00000160: 697e ce3e 9716 753d 6240 193f d624 67be
00000170: 3a81 99be 0653 52be 48eb b8be 302e 3dbf
00000180: eaa3 5ebe ddba a53e 7a10 d03e 620e 3c3f
00000190: 01fa a33e 2d1b b5be 6653 c6be fec4 953e
000001a0: aa7e 053c 47ca 86be 9b09 1cbf d384 83be
000001b0: bf88 61be b248 1abf df00 98be 8092 ae3e
000001c0: c2de 20bd f2a3 0e3e 8d3c 3cbe a8d6 833e
000001d0: a877 9c3d 15fb 863f 098b 413e bed3 b83e
000001e0: 750f 083e fe06 1dbf baa9 4fbf 0f41 673f
000001f0: 3243 b53e b0b3 e7bd f7bc c0bb 9daf 033e
00000200: 0197 87be 34ed 99be 1778 8bbd f3d2 b4bb
00000210: 49dc edbe 868b e33c 6fdd c83e a833 943e
00000220: 790a 753f 0e40 19bf f2db 0a3f bdf2 eebe
00000230: 2995 ddbd 5f14 cdbd c838 833e f132 afbe
00000240: 5aae db3e 38e2 3cbe 476d 163e 4339 60bd
00000250: e7a5 dabc b3da db3e e443 a0be 5892 cbbe
00000260: 1f4d 4abf 8def 3dbe 5ea1 57bf 1c13 43be
00000270: 7bd0 f03d 3229 e6bd 8c71 98bd 123b 0bbe
00000280: 6720 f0be 0b0c dcbe a99f 02bd cede b33e
00000290: b7e9 7cbe 16b6 6a3e 6948 873e d138 4c3e
000002a0: 458e b2be 8104 683f 9bb3 12bf 1a17 69bf
000002b0: 8b7b d03e bfbf 8b3e 2c49 febd 9f6c e1bd
000002c0: f2d8 eabe c166 b83e 192f 3e3f 5a69 6bbe
000002d0: 6b26 7dbd 699e e5be 3f4e bc3c 6441 b4bd
000002e0: 35dc 7cbe 4379 00be 4c99 f8bd 5e47 26be
000002f0: 7045 85be d368 9abe b7b5 0d3f af83 1ebf
00000300: 86ad 2d3e 2cb0 0a3e 22b3 c93d 8d0f a1bc
00000310: 035f f03e 01fb c93d dc87 8e3e a7bd 413e
00000320: f248 27bd 837e 8cbe caff 61bd ecbf cabe
00000330: 3c21 92bf eb84 493e 9f99 65bd fb5f 0fbe
00000340: cf03 833e ac76 1f3f 29b9 06bd d3fa 1f3e
00000350: ec3c 50be 9e38 98be 7bc2 f53d d4ec 993f
00000360: 84ba cdbd 8442 2a3e 6aab f1be 3162 503d
00000370: e97c 243f 5a89 933d 03d4 a73e f0eb aebe
00000380: d815 3d3e 7cac 233e 0897 843e b763 fbbe
00000390: a7ac c13e c37e f3bd 01d9 cbbe 2b76 353f
000003a0: 2ab1 933e d8d2 8fbe 9568 bb3e 06f2 8b3f
000003b0: 82cc a1be e7bb 21bf e8f4 563e 84f7 f1be
000003c0: f7a6 86bd 5bd0 1dbe 7fcb 8c3e d063 e0bd
000003d0: 382d 373e c202 b53e 24e6 123e c450 9a3e
000003e0: 4e41 2b3e a45f 48bf 20b5 013f 8a77 373f
000003f0: 1c8b 4bbe 5ffb 033e 5148 16be 6b94 f13e
0.26457638 -0.2123906 0.13653865 0.0898539 0.010464264 0.13609946 0.060367066 -0.60039884
-0.09464904 0.25152808 -0.22144362 -0.78777266 0.3473135 -0.20133244 -0.17083755 0.08544242
-0.29671302 -0.7669368 -0.089921415 1.0310264 0.85591114 -0.5450844 -0.33185405 0.1888734
0.39506266 -0.4808363 0.24179511 0.028665723 0.9043081 0.21301836 0.1494075 -0.343845
-0.34504184 0.018791195 0.406074 -0.9013402 -0.18950658 0.20089397 -0.39046872 0.10855696
-0.4404528 -0.1084055 0.50882596 0.115035996 -0.19555153 -0.3700849 -0.16276352 0.3936585
0.19849932 -0.42879328 -0.63925546 0.0030327695 -0.68952304 0.041298904 0.23085275 0.14504275
0.17622675 0.459978 -0.25672323 -0.14573425 -0.5431489 -0.49515942 -0.1495076 -0.4335296
0.17430666 0.08497318 0.29549146 -0.71933496 0.3001168 0.022199877 -0.2890689 0.534287
0.17743655 -0.1793226 -0.50990677 -0.3134718 -0.208678 -0.515641 0.059162114 0.57158905
-0.16627301 0.011007793 -0.5571862 -0.42647526 -0.11643807 0.06292383 -0.14263164 -0.55539984
0.40330818 0.059835996 0.59863865 -0.22572646 -0.29981405 -0.20539483 -0.36117005 -0.738986
-0.21742216 0.32369128 0.4063757 0.73459446 0.32026675 -0.35372296 -0.38735503 0.29251856
0.008147875 -0.263262 -0.60952157 -0.25687274 -0.2202482 -0.60267174 -0.29688165 0.34096146
-0.03927494 0.13929728 -0.18382473 0.25749707 0.0764001 1.0545374 0.18900694 0.36099046
0.13287146 -0.61338794 -0.8111836 0.90333647 0.35402828 -0.113135695 -0.0058819014 0.1285996
-0.26482394 -0.30063784 -0.06810015 -0.005518311 -0.46457127 0.02777649 0.3923144 0.2894566
0.95719105 -0.59863365 0.5424186 -0.4666957 -0.10819466 -0.10013651 0.25629258 -0.34218553
0.42906457 -0.1844567 0.14690123 -0.05474211 -0.026690437 0.42940292 -0.31301796 -0.3976009
-0.7902393 -0.18548413 -0.842306 -0.19050258 0.117585145 -0.11238326 -0.07443532 -0.13596752
-0.4689972 -0.42977938 -0.031890545 0.35130924 -0.2469853 0.22921023 0.26422432 0.19943549
-0.34874168 0.9063187 -0.57305306 -0.91050875 0.40719256 0.27294728 -0.124163 -0.11007046
-0.4586864 0.36015895 0.74290615 -0.22989407 -0.061804216 -0.4484742 0.02298653 -0.08801535
-0.24693377 -0.12546258 -0.12138614 -0.16238162 -0.2602954 -0.301581 0.553554 -0.61919683
0.16960725 0.13543767 0.0984862 -0.019660736 0.46947488 0.09862328 0.27838027 0.18920003
-0.04084105 -0.2744027 -0.05517558 -0.3959955 -1.1416392 0.1967961 -0.056054708 -0.14001457
0.25588843 0.62290454 -0.032891426 0.15623026 -0.2033574 -0.29730695 0.11999985 1.2025399
-0.10045341 0.16626936 -0.4720109 0.050874893 0.642531 0.07203932 0.3277894 -0.3416438
0.18465364 0.15983766 0.25896478 -0.49099514 0.37827036 -0.11889412 -0.39813998 0.70883435
0.28846103 -0.2809055 0.36603227 1.0933235 -0.3160134 -0.6317734 0.20991862 -0.47259152
-0.06574815 -0.15411513 0.27499005 -0.10956538 0.17888343 0.35353667 0.14345604 0.30139744
0.1672413 -0.78270936 0.50667 0.7166678 -0.19877285 0.12888859 -0.14676024 0.47183546

weight f4 [8]
00000000: 8a88 ab3f 72e3 a63f 4297 d63f be43 ab3f
00000010: 3221 973f 96ed ab3f a3f9 fc3f 8f9d cd3f
1.3401043 1.3038161 1.676491 1.3380048 1.1807005 1.343188 1.9763683 1.6063708

bias f4 [8]
00000000: 7277 22be 1141 733d bf36 83be 4d11 4cbe
00000010: 4382 01bf 5c0f 0ebf f887 46bf e8b8 713e
-0.15865877 0.059388224 -0.25627705 -0.19928475 -0.5058939 -0.55492187 -0.7755122 0.23605692

running_mean f4 [8]
00000000: f9ae e2bf 57bc d7bf b17d 45bf 2b68 063f
00000010: c653 453e 87b9 28bf 979e be3d 8016 e5bf
-1.7709647 -1.6854352 -0.77144915 0.525027 0.19270238 -0.6590809 0.09307592 -1.7897491

running_var f4 [8]
00000000: a95d 0141 74b7 5041 3ada 5841 0d1f 2d41
00000010: b498 f240 5ce8 d340 4ad5 4c41 7a70 9e41
8.085366 13.044788 13.553278 10.820081 7.5811405 6.622114 12.802073 19.80492

weight f4 [8, 8, 3, 3]
00000000: 4b78 22bf 5ff9 ebbc b110 ecbc ebe5 093e
00000010: 3cf0 913d d253 ce3e c9fc 93be 9a2d 50be
00000020: ad24 d8be eacb 3c3e ddc5 0ebf 5cab 263e
00000030: bdd8 48be d759 b53d 2caf a13e 7f46 01bf
00000040: 4e8b 80be c4d5 b9be d9a1 c2bd 5eb3 0abf
00000050: f72e 52bf 5a66 0e3f ccad 36bf ea53 fdbd
00000060: 3138 643d 77dd 2abe d5e3 f3be e44f a4bf
00000070: e963 00be 815b 3fbf d9f9 483e 0341 bdbd
00000080: f0f3 ecbe 17ad ca3e 0b94 33bf 3b45 14bc
00000090: 5dfa 853d 935b 5b3e 92cf 933c 12ef e43e
000000a0: 1041 66bf 2fe9 8dbe 4b63 1bbf cb35 96bd
000000b0: 3229 be3e 093c eb3b ed32 32be 33c9 7c3e
000000c0: 2f79 51be 5763 ea3d 54ee 3fbf 181d 17be
000000d0: b609 333e d277 d3be 3012 343e 958e ff3d
000000e0: 17ba 913e e3e5 713e 35e7 853e cf9c 77bb
000000f0: 2ae5 8ebe 1892 8b3d 1cc9 08bf 0f03 7fbf
00000100: e884 9cbe ef41 6e3d d88d 433d fae5 82bf
00000110: 91cf c3be 977c 593e 497f 0f3f 961b be3e
00000120: 7e15 f73e fc10 d33c d8dd 9a3e 6044 68be
00000130: 8373 35bf 83d9 433f 6fb1 8bbe d007 433e
00000140: e555 623e 296a 193f 263e 82be 447b f3be
00000150: 8258 3c3e 6f0a 7cbc 1b03 9b3e aae2 0a3e
00000160: 7a4c ab3d 0a16 683e e27c febe 5b9c 5abe
00000170: e00e 783f 16ec 873e 7188 05bd 4ec3 39bd
00000180: eb96 59be 1454 e43c afc5 303f ca30 69bf
00000190: 3a69 67be ace4 9eb8 d04d 8ebe 32f1 8e3d
000001a0: 31f8 d9be 9739 3ebe f848 d6bc b1c9 5fbe
000001b0: 8421 eebe ec07 99be 0e8e 053e a3a9 f5be
000001c0: 0c3b 4bbe bbf3 993d 423a 36be e281 d53e
000001d0: 5057 eabe 7ac9 5bbe 7161 77be fd5e 64bf
000001e0: 1f40 163e 447d c9be d680 e43e bcad d2be
000001f0: e7a9 193d bedf 5dbf 5444 84be ddf1 96be
00000200: ce5b 083f cf87 39be 195f 9f3e d451 febe
00000210: 68d5 4bbe efc0 c63d 2dd9 6ebf 03b5 75be
00000220: ea53 67bf 5316 b13d 47f7 3abf c2cd 7abe
00000230: 8d81 f93e 89a7 e7be 3e30 9cbe a6ba 38be
00000240: 2f8c 17bf ccb5 b7be 528a 743e 1b49 7ebe
00000250: 3375 9abe 5de4 2e3e f1ca 933e 8d53 19bf
00000260: d85d eebe bc21 4cbf 7a01 78bf aa9c 033f
00000270: d943 3fbe 4aa2 9dbe 7501 ca3e e32a 4b3f
00000280: e4c5 043e ad4a 243f d41a cf3e 36d4 c83d
00000290: 43a6 8d3e 0328 b6bd 4f37 4a3e ce33 f73e
000002a0: 0760 2dbe ed98 053f 9b5d a33e 2e1c 05bf
000002b0: fe44 93bf f78d 853e 1900 3fbe b10e 29bd
000002c0: 259c 1b3e 0edd 22be 59d0 923e 88e0 c13d
000002d0: db7c 7ebe 2d2d d33e 3a14 3d3f dabe 8b3f
000002e0: dd1e 29bf 569d adbe 4b7b 463f 170a 683d
000002f0: 8834 f13d 69d6 2ebf 2e32 8c3e 733a 31bf
00000300: 5b9d 02be 8846 c53e 484e 783e 937a dfbe
00000310: 2d1e e83e cbe8 7dbf 0feb 92be 0c9b 8d3c
00000320: b1ae 6d3e 455d 2a3e 4d7a 4abe 7d7c 203e
00000330: 2ca4 8f3e 0f07 39bf feb8 933e 0659 30bf
00000340: 3da3 193f d97e e33d 0d48 abbd 3ce2 b8be
00000350: 5239 20bf e89f 10be d2a1 92be 2f64 133f
00000360: 2d1c 023f def7 41bf 3ee3 ecbe c84f d63e
00000370: fd12 89bd 50ad d53e 0bf6 dcbe 0200 8abe
00000380: 3fc6 89bf 7668 b13d d93d e0bd 7383 943d
00000390: c7c4 f4be e111 01be bd66 15bf 5e8d 99be
000003a0: 5742 8bbe a1f7 3ebf 4e88 09bf 3a75 823c
000003b0: 123a 52be 66a9 37be 932e 083d 6bef 613e
000003c0: 1f23 02be 3238 053f 8664 14be 11db 803e
000003d0: 1a64 8b3e b139 efbc 3252 053f 3b58 073e
000003e0: 29d7 92bd 3c0d 4fbf 099b 14be 741d 23bf
000003f0: ead1 28be 7114 1abe 7cfb 58be 87e5 4a3e
-0.634648 -0.028805433 -0.028816553 0.13466613 0.07125899 0.40298325 -0.28903797 -0.20329896
-0.4221548 0.18437162 -0.55770665 0.16276306 -0.19613929 0.08855026 0.31578958 -0.50498194
-0.2510628 -0.36295903 -0.09503526 -0.5417994 -0.8210291 0.55624926 -0.71358943 -0.12369521
0.05571765 -0.16686045 -0.4763476 -1.2836881 -0.12538113 -0.74749 0.1962656 -0.092409156
-0.4627986 0.39585182 -0.7014777 -0.009049709 0.06541894 0.21421652 0.018043313 0.44713646
-0.8994303 -0.27716967 -0.60698384 -0.07334479 0.37140805 0.0071787876 -0.17402239 0.24686126
-0.20456384 0.11444729 -0.74973035 -0.14757192 0.17484173 -0.41302353 0.17585063 0.12478367
0.28462288 0.23622851 0.2615296 -0.0037782674 -0.27909213 0.068149745 -0.5343187 -0.9961404
-0.3057015 0.058168348 0.047742695 -1.0226433 -0.38244298 0.21238934 0.56053597 0.3713042
0.48258585 0.025764935 0.30247378 -0.22682333 -0.7087938 0.7650377 -0.2728381 0.19045949
0.22103079 0.5992761 -0.2543804 -0.47554982 0.18393138 -0.015383347 0.30275807 0.13563028
0.08364196 0.22664657 -0.49704653 -0.21348707 0.968977 0.26547307 -0.032600824 -0.045352273
-0.21248977 0.027872123 0.6905164 -0.9109007 -0.22598734 -7.5766206e-05 -0.2779374 0.06979598
-0.42572168 -0.18576656 -0.026157841 -0.21854283 -0.46509945 -0.29888856 0.13042471 -0.47980985
-0.19846743 0.07517191 -0.17795661 0.41700655 -0.4576974 -0.21463576 -0.24158265 -0.8920744
0.14672898 -0.39353383 0.44629544 -0.41148174 0.037515547 -0.8666953 -0.2583338 -0.29481402
0.5326508 -0.18118213 0.3112724 -0.49671805 -0.19905627 0.09704768 -0.93300134 -0.23994832
-0.9036242 0.08646836 -0.73033565 -0.24492553 0.48731652 -0.45245007 -0.30505556 -0.1803995
-0.5919828 -0.35880888 0.2388089 -0.24832575 -0.3016754 0.17079301 0.2886577 -0.59893113
-0.46555972 -0.79738975 -0.96877253 0.51410925 -0.18678226 -0.3078788 0.39454237 0.79362315
0.12966114 0.64176446 0.40450156 0.09806101 0.2766591 -0.088943504 0.19747661 0.4828171
-0.16931163 0.5218647 0.31907353 -0.51996124 -1.150543 0.26084873 -0.18652381 -0.041273776
0.15196283 -0.15904638 0.28674582 0.09466654 -0.24852316 0.41245404 0.7385899 1.0917618
-0.6606272 -0.339091 0.7753188 0.056650247 0.11777598 -0.68295914 0.27382034 -0.6922981
-0.12755339 0.38530374 0.24248612 -0.43648204 0.45335522 -0.9918334 -0.2869496 0.017285846
0.2321117 0.16637142 -0.19773217 0.15672489 0.2805494 -0.72276396 0.28852075 -0.6888584
0.60014707 0.11108179 -0.08363352 -0.36110103 -0.62587464 -0.141235 -0.28639084 0.57574743
0.5082424 -0.7576884 -0.46267122 0.41857743 -0.06693075 0.4173379 -0.43156466 -0.2695313
-1.0763625 0.086625025 -0.109492965 0.072516344 -0.4780638 -0.12604477 -0.5835989 -0.29990667
-0.2719905 -0.745966 -0.5372361 0.015925039 -0.20529965 -0.17935714 0.03324754 0.22063987
-0.1270871 0.5203887 -0.14491472 0.25167134 0.2722481 -0.029202314 0.52078545 0.13217251
-0.07169945 -0.8087957 -0.14512266 -0.63716817 -0.16486326 -0.1504686 -0.21189684 0.1981412

weight f4 [8]
00000000: 75d9 b93f 5966 aa3f b85a b73f 8d26 b83f
00000010: 5c11 963f edf6 bc3f db84 8d3f 3904 c83f
1.4519488 1.3312484 1.432456 1.4386765 1.1724048 1.4762856 1.1056169 1.5626289

bias f4 [8]
00000000: 5b88 5dbf 5f97 8cbe 86f3 5bbf 0990 7abf
00000010: 373b 12bf 4bb9 1ebf a594 b8be f474 97bf
-0.86536187 -0.27459237 -0.8591846 -0.9787603 -0.57121605 -0.62001485 -0.36050907 -1.1832566

running_mean f4 [8]
00000000: 2c0a 9fc0 f22f 64c0 9c3e 8ebf 05d2 9ac0
00000010: dc8b 60c0 f423 b0c0 b02d 6b3f 68c2 a6bf
-4.9699917 -3.5654263 -1.1112857 -4.838137 -3.5085363 -5.504389 0.9186659 -1.3028078

running_var f4 [8]
00000000: 778c 0541 aeaa 0841 8903 1541 b7e2 4141
00000010: 708f 1441 17b6 1e41 de47 ea40 e5ea fb40
8.346793 8.54167 9.313363 12.11785 9.285019 9.919456 7.321273 7.8724236

weight f4 [16, 8, 3, 3]
00000000: 630e 36be abc3 df3e 8476 7d3e 5855 913d
00000010: 13de e3be 9bfa a03e 0292 2cbd 2a88 01bf
00000020: 73f1 d3bd 59e4 75be 3691 833d 94d0 763e
00000030: 7db5 71be 8314 f3be ee48 01bd 40fb 273a
00000040: 9618 713d e4cf 583e ea1d 2c3e 6e90 bcbe
00000050: 0f7d 07bf a15d 9dbd 588d ff3c 925c 163e
00000060: 9142 13bf abca fa3d e6e2 603d 75d0 f8be
00000070: c071 82bf 4e71 c93d b61e 003f 2d48 b0bd
00000080: 3eb0 04bf 42b3 ad3e f154 2a3e b2e2 0f3f
00000090: 0731 d7bc c5d2 5bbe 40cb 183e 29be 0e3f
000000a0: 3845 e53d 456a 92bd 97da 4fbe 03e6 15bf
000000b0: 8056 56be 5d12 a5be 9667 d83c cede db3c
000000c0: 766d 9ebd 3782 96be e07e 1cbf 98ee 94bd
000000d0: 01ab 0c3e 71fc 553e 2dcb 783d 8668 913d
000000e0: 3509 aa3e ec7f abbd 2623 80bd 86a2 c63e
000000f0: f062 8ebc 2d18 a8be 5c32 40be fbf5 d1bc
00000100: d90f 37be 0685 0f3f b97b 1dbf 6a4e 543d
00000110: b2ad ec3e 22c0 df3d 4bb2 3ebe 0884 873d
00000120: 25f6 2d3d 0a21 c6be 00e2 2dbf 1499 2cbe
00000130: 3bcf 203c e2d3 02be ba3c 32bd ff1e c7be
00000140: be46 863c 821b 1bbe 382d 1fbe bd4d 053c
00000150: 7470 bebe ce86 bfbd 2696 503d 75f4 b2be
00000160: e48c 8ebd a3e0 393e 1acf 1a3e 947c 7b3e
00000170: 1d94 ac3e bad1 243e 84fa 2cbe a410 e13d
00000180: 5e7d fd3e 3f14 103d 058c ec3e 64b9 6f3e
00000190: 1e5a 94be 948f 84be a834 eebd ac07 433e
000001a0: 4723 a9be 9471 713e 6f88 e33d d26e 573e
000001b0: 4672 1bbe 0003 093e 9345 c03e 179a 0b3f
000001c0: 2c7e 2c3e 4203 173f 4f35 32be 0f51 b53d
000001d0: 2d02 d2bd 6b04 a83e 0be3 663b f0f2 59bd
000001e0: 6bbd 21be 3fb5 453f ffd5 d33d bab6 1dbe
000001f0: e7f4 273e 60b9 803d 4cec 813d a846 f1bc
00000200: 8ad3 10bd a923 2c3e 3864 0ebf 2845 d4be
00000210: 72e3 16bd 45d2 a839 de07 2d3d da07 cd3e
00000220: 584c a2bd b1d0 ccbe 7137 d53d 9213 a0be
00000230: 3c43 2abc 23a5 133e e921 99be 56a9 93be
00000240: 2119 35bd 3e63 ccbe 3925 e53e 4d9b efbb
00000250: 4861 a9be 06d0 d23e 31f0 57bd abe2 29be
00000260: c368 e8be 3036 c9bd d145 a13d d8a2 37be
00000270: fade 1dbd 9f3b e1be f124 b3be 82cd d33e
00000280: b89e a5be 0c50 5e3e b966 15bf 654b 01bf
00000290: 7ff2 0a3f cd35 acbd c017 11be ff9c 4d3e
000002a0: b864 603d 5714 37be 1e2c bc3b ffab 92be
000002b0: b488 063e 6010 37bf ebeb 883d 4e0c e7bc
000002c0: b703 00bf 551f 9abe 88d4 0abf cb8c 37be
000002d0: 4ec1 b1be a032 173c de4c 71be 611a c43e
000002e0: 366a d6bd c541 9e3d 5615 43be 0cd4 88be
000002f0: 1c72 c53e 4427 37be d10e 7bbf 6e3b a33e
00000300: d3f0 a1bd c56c 00bf a7ad 40bf e340 12bf
00000310: 01b5 c03e 0b22 f23d 11b7 cbbe e5be 7e3e
00000320: fa7e fdbe 6608 df3e b40f 88be d217 1ebf
00000330: e20c 36bf 474f 1f3d d8d7 203e f153 dd3d
00000340: c3c9 973e 1839 52bf f444 c63b a03e febe
00000350: b136 763e 7860 c43e bd3f 953e e4a5 6e3d
00000360: 63f3 7e3e 073a 05be 1331 64be aba9 fcbd
00000370: d6f0 93bd 88ca 95bd bde5 37be 2e70 1bbe
00000380: 61cf 81bc 25bb 133f f791 993e 5745 72be
00000390: 86b9 4a3e e8c1 713e 70bc 4ebe 29c3 133e
000003a0: 0114 01be 8529 b0bd 1cb0 cbbe d78d 963d
000003b0: d58d b33e d100 59bd e431 28be 7564 1a3e
000003c0: a3f8 763d ecdb b43e d2d5 893d f9e5 163e
000003d0: 4287 893e 53dc df3e af59 193d fe6b 65bd
000003e0: 4640 893e fb1b 6fbe 5d70 ffbd 4106 5ebe
000003f0: 0676 3e3e 7fc7 c0bd d9d1 1dbe 81b9 a3be
-0.17778926 0.4370397 0.24752241 0.07096356 -0.44505367 0.31441197 -0.04213143 -0.50598395
-0.10348787 -0.24012889 0.06424181 0.24103004 -0.23604389 -0.47476587 -0.03156369 0.00064079836
0.058861338 0.21173054 0.16808286 -0.3682894 -0.529252 -0.07683874 0.031195328 0.1468375
-0.5752345 0.12245687 0.054903887 -0.4859654 -1.0190964 0.09836064 0.5004686 -0.086075164
-0.51831424 0.33925825 0.16633965 0.56205285 -0.026268495 -0.21467121 0.14921284 0.5575891
0.11194843 -0.071491756 -0.20298229 -0.58554095 -0.20931435 -0.32240573 0.026416581 0.02683964
-0.07735722 -0.2939622 -0.61131096 -0.07272071 0.13737108 0.2089708 0.06074064 0.071000144
0.3321015 -0.083740085 -0.06256704 0.3879587 -0.017381161 -0.32830945 -0.1876921 -0.025629988
-0.17877139 0.5606235 -0.6151691 0.051832594 0.4622627 0.10925318 -0.18622701 0.0661698
0.04247107 -0.38697082 -0.67922974 -0.1685527 0.009815033 -0.1277614 -0.043514945 -0.38890836
0.016391154 -0.15147212 -0.15544593 0.00813621 -0.3719517 -0.09351884 0.050924443 -0.3495213
-0.069604665 0.18152098 0.15118065 0.24559242 0.3370675 0.1609563 -0.16892439 0.10989502
0.4950971 0.03517556 0.46200576 0.23410565 -0.28975004 -0.2589079 -0.11631137 0.19045895
-0.33034727 0.23578483 0.11110007 0.21038368 -0.1518031 0.1338005 0.3755308 0.54532
0.16845006 0.58989346 -0.17403148 0.08853351 -0.10254321 0.3281587 0.0035230543 -0.0532102
-0.15794913 0.77229685 0.10343551 -0.15401736 0.16402017 0.062853575 0.06343898 -0.029452637
-0.03535799 0.16810478 -0.5562167 -0.41459012 -0.036838003 0.0003220012 0.04224383 0.40045053
-0.07924718 -0.4000297 0.10410965 -0.3126493 -0.0103920065 0.14418463 -0.29908684 -0.2884013
-0.044213418 -0.39919466 0.4475496 -0.0073122145 -0.33082032 0.41174334 -0.0527193 -0.16590373
-0.45392427 -0.098247886 0.078746445 -0.17933214 -0.038542725 -0.439908 -0.34989122 0.41367728
-0.32347655 0.21710223 -0.5835987 -0.5050567 0.5427627 -0.08408699 -0.14169216 0.2007942
0.054783553 -0.17878853 0.005742564 -0.28646848 0.13138086 -0.7150936 0.06685623 -0.02820411
-0.5000567 -0.3010203 -0.54230547 -0.17924802 -0.34717792 0.0092283785 -0.23564479 0.38301376
-0.10469477 0.07727388 -0.19051108 -0.2672428 0.3856362 -0.17886072 -0.98069483 0.3188128
-0.07907262 -0.5016597 -0.7526497 -0.5713026 0.37638095 0.118228994 -0.39788106 0.24877508
-0.49510938 0.43561095 -0.2657448 -0.61755097 -0.7111341 0.038893964 0.15707338 0.10807026
0.2964612 -0.8211837 0.0060507003 -0.49657154 0.240443 0.3835485 0.2915019 0.058263674
0.24897532 -0.13010417 -0.22284345 -0.12337049 -0.0722367 -0.073140204 -0.17958732 -0.15179512
-0.015845956 0.57707435 0.29994175 -0.23659264 0.19797334 0.23609126 -0.2018907 0.14429916
-0.12605287 -0.08601669 -0.39782798 0.073512726 0.35069147 -0.052979294 -0.16425282 0.15077384
0.060295712 0.35324037 0.06730236 0.14736165 0.26861006 0.43722782 0.037439045 -0.056011193
0.2680685 -0.23350517 -0.124726035 -0.21682073 0.1859971 -0.09413051 -0.15412082 -0.31977466

weight f4 [16]
00000000: 3826 fe3f 976f e03f a19a 0240 bff9 f53f
00000010: ffbc 0340 c4cf e13f e9a6 df3f eed8 0440
00000020: dacc 1e40 bfda 2540 1106 2040 f655 2740
00000030: 6e0a 3840 9b3c 3340 f916 2440 d3e7 0d40
1.9855413 1.7534055 2.0406878 1.9216841 2.0584104 1.764153 1.7472812 2.0757403
2.4812531 2.5914762 2.5003703 2.6146216 2.8756366 2.800574 2.5639021 2.2172744

bias f4 [16]
00000000: 4454 59be 666c 7cbd 3dde 053e 7aaf 33be
00000010: 5a3a a53c 4778 d5be c234 f8bd 75d6 5abd
00000020: 61fb d13e dae8 8fbc 8d8a b03d c99b e73e
00000030: 614c 583d 13cd 973e 11dc 493e 8c44 913e
-0.21223551 -0.061626814 0.13073058 -0.17547408 0.020169426 -0.41693327 -0.12119438 -0.05342718
0.410121 -0.017567087 0.086201765 0.45236042 0.052807216 0.29648647 0.19712855 0.2837261

running_mean f4 [16]
00000000: bba9 c8bf a6b0 923b 509b 1fc0 4b8f 773f
00000010: f9c9 12c0 0d57 fabf 2460 4abe 4743 0bbf
00000020: d061 e1be 5803 233f 2f8c 4ebf c98c a1be
00000030: 5be2 dabf 7002 7ebf cac9 9bbf 3957 20be
-1.5676798 0.0044766245 -2.4938545 0.9670302 -2.2935774 -1.9557816 -0.19763237 -0.5439953
-0.44019938 0.6367698 -0.80682653 -0.31552723 -1.7100328 -0.9922247 -1.2170956 -0.15658273

running_var f4 [16]
00000000: c37c 5140 2d56 933f 97d7 8840 2ce5 2640
00000010: dcdc 9f40 e167 2640 d858 0940 c9a7 1b40
00000020: ca3d ba3f d813 723f 7e2f ad3f f9cb 0040
00000030: 1876 ee3f c814 2c40 ba25 453f 15c6 373f
3.2732399 1.1510674 4.276317 2.6077375 4.9957104 2.6000903 2.1460476 2.4321158
1.4550107 0.9456153 1.3530118 2.0124495 1.8629789 2.6887684 0.7701069 0.71786624

weight f4 [64, 96]
00000000: 95e7 5d3d eb0e a13d bc3a e9bc 9cac 5ebc
00000010: 87bd 0dbd 526d 67bd 54cd a83d e6e2 a8bd
00000020: bb71 af3d be61 debd dc22 ddbd dd5f 80bd
00000030: 3aad b9bd 4480 aa3c 2741 d53c ba8e 3b3d
00000040: 7a21 5bbc ecf8 b4bc 1b27 c73c 28b0 abbd
00000050: b14c 4b3d dc87 b63d 261e 8f3c ef6d 223d
00000060: 87d2 dfbc a5b6 b3bd 81bc a03d aa91 a0bd
00000070: 0699 173d b4bf 923c 24f4 bdbd ab40 8fbd
00000080: 61fa e53c 6361 863d 1610 73bd 7628 3a3d
00000090: eec1 3fbd be8b 92bd d365 b8bc 9af1 99bd
000000a0: 6797 48bd c368 a13d a06b 1b3d 187e a7bd
000000b0: 2c2a dfbb ec6d 943d 1f80 a9bd b7e5 d6bd
000000c0: 07d3 973d 61da a7bc 69dc 38bd efef fc3c
000000d0: aa38 b2bd 1394 25bd a4db 52bc 5373 8cbd
000000e0: a7fc 92bd c352 c7bd 8453 52bd 0c4c 9fbc
000000f0: 4fd4 8f3c d936 413d 8ff8 72bd 5f38 bcbd
00000100: 3f46 713d 7058 acbd c2f0 c4bd 7049 d23b
00000110: cca6 6cbd 359b 083c bfc0 fabc 67f3 d0b9
00000120: 5026 f13c 16e2 30bd 8a8e cc3a 8d92 033d
00000130: 176b c4bc 78ca 8d3d e8cd 5d3c c6b6 3f3d
00000140: 05f0 243d 54d8 01bd 4491 6dbd c14f e0bd
00000150: 8f60 673d 9b2f c5bd 94ab 143d 0b7d 6fbb
00000160: 43c6 0ebb e0df 9e3d ef19 4ebd 0e78 a1bd
00000170: 2d21 99bb c4ae 7fbd a11e b7bd 7785 e2bc
00000180: 0d6c 11bd 8397 4dbd 30f3 813c d57c 3c3c
00000190: 99af b4bd e842 30bd 8ab1 a2bd 2634 cb3b
000001a0: 31e2 3d3c 49a7 b2bd 453c afbb ebce b33d
000001b0: 954d a5bd 74ce 67bd 2c21 77bd 1aef afbd
000001c0: 8d87 5b3d 0308 95bc 6d8f 59bd 0329 a83b
000001d0: 9cd2 11bd 1af4 02bd b93d edbc 8adf 4b3d
000001e0: ca0b 7d3d e716 903d 18ad 3e3d a7ab 3b3d
000001f0: 3e17 b33d af78 863d aae1 aabc 1de4 42bd
00000200: 34ac b13c 091b 30bd b7a7 76bd 2fe0 a83d
00000210: e94f 573d 9966 e43c 3377 c4bd 15ba 6e3c
00000220: 4a6a 2cbd 3517 d5bb 1d3b 783d f203 873c
00000230: 40c0 963d 8482 3e3a 5862 123b 3118 1b3d
00000240: b404 193d 55b7 a43d 0d81 2d3c a24d bc3d
00000250: 293b 31bb 96d3 2ebd bc69 5bbd 89df 34bd
00000260: 7811 f1ba 1699 173d 78bd 4a3d b09d 073c
00000270: d419 2b3d c99d e5bb 7813 af3d 3d1c 4d3d
00000280: 28c9 9f3d 8e86 5bbd ce83 5ebd aeea 213c
00000290: 6478 913d ecb4 29bc 4076 f4bb 9ca4 aebd
000002a0: 9604 cbbd 6c6c 36bb 29c5 10bd 4b26 44bd
000002b0: d1a4 dc3d 8989 443d 82e6 f53b 5a41 d63c
000002c0: fa78 72bd 29a6 373d 0214 4cbc d242 8dbd
000002d0: 9abd e13d f19c 853c a12b a9bd 4d93 87bd
000002e0: bfa5 dfbc 4870 aa3c 981a 213a 2e2f 9d3d
000002f0: ae67 9f3d eb54 c4bd a53b d03d a05f 983d
00000300: 7a54 7ebd d6f7 6a3d 1ae2 aebc 3aaf cc3b
00000310: 4274 8fbd 2722 aa3d 619b 51bd 37c6 463d
00000320: a2c8 36bd 01e4 233d 52f7 44bd 4593 3ebd
00000330: 7a35 ae3d b06b e5bc fe74 02bd 5808 5ebd
00000340: 700c 763d 95ff c9bd ab55 3abd 654d b73d
00000350: 4126 89bd dd52 8abd 62a7 d9bc f3bb 86bd
00000360: 5e94 143d ff32 903c 4eca 9e3d 6c56 59bd
00000370: 8799 08bd 6521 bd3d 13fa 6d3d 2079 95bd
00000380: ad72 bdbd de52 99bc 4ee1 0bbd 2058 b63d
00000390: 508c 433c 7fb7 723b 9db6 cabc 84aa fcbc
000003a0: 7988 a03c b7dd 7ebd ac34 a1bd 5a2f 8b3c
000003b0: f541 2cbd 824a 393d d039 bfbd 9100 67bc
000003c0: 9e82 6cbd 2abc cd3d 7d77 9ebd a04f 4dbd
000003d0: e71f 8c3d 4be6 72bd 6cbb 94bd 08ee d43b
000003e0: c357 a3bd f286 8bb9 6768 acbc 0faf 88bd
000003f0: a4da 42bd d392 5b3d c8a3 19bd ea8f 0b3d
0.054175932 0.078641735 -0.02847039 -0.013590958 -0.034604575 -0.05650074 0.08242288 -0.082464024
0.08566614 -0.108584866 -0.107976645 -0.062682845 -0.090662435 0.020813115 0.026032044 0.04579041
-0.013374681 -0.022091351 0.02431064 -0.083832085 0.049633685 0.08912632 0.01747043 0.039655622
-0.027322067 -0.08775071 0.07848454 -0.07840283 0.03701117 0.017913677 -0.09275082 -0.06994756
0.028073492 0.06561544 -0.059341513 0.045448743 -0.046815805 -0.0715556 -0.022509491 -0.07516785
-0.048972514 0.0788131 0.037944436 -0.08178347 -0.006810447 0.072475284 -0.0827639 -0.104930334
0.07413297 -0.020489873 -0.045132075 0.030876128 -0.08702214 -0.040424418 -0.012869749 -0.06857934
-0.07177096 -0.097325824 -0.051349178 -0.019445442 0.017557291 0.047171447 -0.059319075 -0.091904394
0.058904883 -0.084153056 -0.096162334 0.006417446 -0.057776257 0.0083377855 -0.030609487 -0.000398542
0.029437214 -0.043184362 0.0015606445 0.032122184 -0.023976846 0.069233835 0.013537861 0.046805166
0.040267963 -0.031700447 -0.057999864 -0.10952712 0.05648857 -0.09628221 0.036296442 -0.0036543037
-0.0021785654 0.077575445 -0.0503177 -0.07884227 -0.0046731443 -0.06242253 -0.08941389 -0.027651532
-0.035503436 -0.05019332 0.015863031 0.011504372 -0.08822555 -0.043032557 -0.07944019 0.006201285
0.011589573 -0.08723313 -0.005347761 0.08779701 -0.08071438 -0.056593373 -0.06033437 -0.08590527
0.05359607 -0.018192297 -0.053115297 0.005131842 -0.035601243 -0.031971075 -0.028960096 0.04977373
0.06177882 0.07035618 0.046551794 0.045817997 0.087446675 0.06565987 -0.020859558 -0.047580827
0.021688558 -0.042994533 -0.06021854 0.082458846 0.052566443 0.027880954 -0.09593048 0.014570733
-0.042093553 -0.0065030106 0.06060325 0.016481373 0.073608875 0.0007267373 0.002233645 0.037864868
0.037358 0.0804278 0.01058985 0.09194495 -0.002704332 -0.042682253 -0.053567633 -0.044158492
-0.0018392047 0.03701123 0.049497098 0.008277342 0.04177268 -0.007007335 0.08548635 0.05007576
0.078020394 -0.05359512 -0.054324917 0.009882612 0.07103041 -0.010358077 -0.0074603856 -0.085274905
-0.09912984 -0.002783562 -0.035344277 -0.04788808 0.10773624 0.047982726 0.0075042853 0.026154209
-0.059197403 0.044836197 -0.012455942 -0.068975106 0.11022492 0.016310187 -0.08260275 -0.06619892
-0.027300714 0.020805493 0.00061456254 0.076750144 0.07783447 -0.09586509 0.10167626 0.07440114
-0.062092282 0.05736526 -0.021348048 0.0062464746 -0.07004596 0.08307295 -0.05117357 0.048528876
-0.044624932 0.040012363 -0.048087426 -0.046527166 0.085062936 -0.028005451 -0.031849854 -0.054207176
0.060070455 -0.098632015 -0.045491856 0.08950309 -0.066967495 -0.06754086 -0.026569072 -0.06578817
0.036274306 0.017602442 0.0775343 -0.053060934 -0.03334954 0.09234885 0.058099817 -0.072984934
-0.09250388 -0.018716272 -0.034150414 0.08903527 0.011935309 0.0037035642 -0.02474528 -0.030843027
0.019596325 -0.062223163 -0.078713745 0.016990352 -0.04205509 0.04523707 -0.09337199 -0.014099256
-0.057741754 0.10045655 -0.07737634 -0.050124764 0.068420224 -0.059301656 -0.072623104 0.006498102
-0.079757236 -0.00026612688 -0.021045877 -0.06674015 -0.047571793 0.05360682 -0.03750971 0.034072794

bias f4 [64]
00000000: e3b8 563d 4660 e4bc 41e3 96bc cf99 64bd
00000010: 8395 62bd 6b80 753d c9a2 a93d ba96 c23d
00000020: 55e4 283e d3c8 1a3d dbec 1f3c 2e75 673e
00000030: cd6e 5e3c 07c2 a03c 7d59 a93d bd41 933c
00000040: a861 843d 134a aebd e7bd 5f3c f63a 853d
00000050: 0b34 893d 582d a53d 856d a0bb 9dd8 583e
00000060: 396e 063e 60aa 863d af07 243d 8a04 f93c
00000070: 3b71 bd3d b812 eabd ead8 6a3d b801 033e
00000080: fd4f 103e 7432 8abd 41e3 c43d 7fd0 5c3d
00000090: 8e2b 703d 132c 1bbc 5f3a e73b 8b67 4e3d
000000a0: 7f19 ab3d d100 443d 032c 033e 3af3 2c3e
000000b0: 78de bdbd 09c7 91bd 490b c33d 1552 89bd
000000c0: d7aa 8a3c 754f c23d 29b0 113d d40c 903e
000000d0: 9010 b63d e91c 4cbd 68de b13d 45b3 383c
000000e0: f2a0 603d 08c6 67bd 4fc5 753d 7432 6f3d
000000f0: 96b3 7d3e 23a0 98bc 0dd1 a73d 0821 df3d
0.052422415 -0.027877938 -0.01841891 -0.055810746 -0.055318367 0.059936922 0.08283002 0.09501405
0.16493352 0.037789177 0.009761061 0.22603294 0.013576222 0.01962377 0.08269022 0.017975682
0.06463939 -0.08510222 0.013656116 0.065053865 0.066993795 0.08065289 -0.0048958682 0.21176381
0.13127984 0.06575465 0.04004639 0.030397672 0.092501126 -0.114293516 0.05733577 0.12793624
0.14093013 -0.067479044 0.09613658 0.053909775 0.058635287 -0.009470957 0.007056519 0.050391715
0.08354472 0.04785234 0.12809758 0.16889659 -0.09270948 -0.07118041 0.09523637 -0.06705109
0.016927166 0.094878115 0.03556839 0.28134787 0.08889878 -0.04983226 0.08684999 0.01127321
0.05484099 -0.05658534 0.06000262 0.058397725 0.24775538 -0.018631047 0.0819417 0.10894972

weight f4 [1, 64]
00000000: a876 d73d b5b0 8e3d d237 563c 363f e43d
00000010: e3a4 9a3b 1262 80bd 1ee0 4f3e 6b72 25be
00000020: d5cc 56bf 5f51 51be 451e 1b3d 8982 5a3f
00000030: e29d 87bd c1ef 7abf 2000 56be d86c 6ebd
00000040: fcd9 69bf 2550 07bc 4798 a93c 8853 aa3e
00000050: 95cb 2bbd d7fd f13d 07d2 9ebe a483 a53f
00000060: 6e99 51bf 8afa 2fbe 301b 80bf d8ce 9ebe
00000070: 809c eebe 0ffa 2fbe 13c7 16be 1a3a 35bf
00000080: 389c 19bf bef1 82be 59c6 3cbf 8e2f 713f
00000090: 17b0 1fbe 1e90 b63d aa58 cdbc c28c e3bd
000000a0: df50 2bbf f10d 18be 108e 7a3f d282 aa3f
000000b0: 8787 a4bd 91d1 903d dc9f 6fbe 1e3b 15bd
000000c0: b719 bfbd b0a4 9ebe 2c71 08be 7ca0 c83f
000000d0: c028 4abf f461 babe 84d1 02be c185 303f
000000e0: e5b1 5bbe 30bb b7be b162 12bf 798f 58be
000000f0: 531d 933f e25d a6be 58be 9a3f 32f9 47be
0.10520679 0.06967298 0.013074832 0.11144869 0.004719363 -0.062687054 0.20300338 -0.16156928
-0.839063 -0.20441197 0.037870664 0.8535543 -0.06621911 -0.98022085 -0.20898485 -0.05820927
-0.9134824 -0.008258854 0.020702494 0.33266854 -0.041942198 0.11815994 -0.31019613 1.2930799
-0.8187474 -0.17185417 -1.0008297 -0.31017184 -0.46603775 -0.17185234 -0.14724378 -0.7079178
-0.60003996 -0.2557506 -0.73740155 0.9421319 -0.15594517 0.08914207 -0.025066692 -0.11110832
-0.66920274 -0.14849068 0.9787302 1.3321173 -0.08033662 0.070712216 -0.23400825 -0.03643333
-0.093310766 -0.30985022 -0.13324422 1.5673976 -0.7896843 -0.36402857 -0.12775236 0.6895409
-0.2145458 -0.35885 -0.5718184 -0.2114848 1.1493324 -0.32493502 1.2089338 -0.19528654

weight f4 [64, 96]
00000000: fd78 f7bc eed5 79bd 4724 c13d 6ff2 cabd
00000010: 5b80 b03d 7745 ff3c dca4 f53c e56d 84bd
00000020: 08e1 923d 67b8 94bd ae58 acb9 0abf 11bd
00000030: c356 8ebd 0157 34bd c5c8 9d3d 74a1 b13c
00000040: a050 7f3c 328a 81bd 9e69 a4bd dc64 aebd
00000050: 2f31 d43d da4e 42bd f2ab c33d c259 773c
00000060: 5f82 9f3c 3212 a03b 0043 dbbc 86f1 9dbd
00000070: 2324 8bbc 28ab 073d 22f7 b2bd 033d d63d
00000080: bbb1 eb3c 8dde 89bd 82b1 0ebd 3c2f febc
00000090: b49e 13bd 0c01 c53c 863e 42bc 44c4 be3d
000000a0: 43e9 2c3d 2c82 c3bd e211 ec3d c160 8fbd
000000b0: 75c8 09bd c1fd b3bd 93e4 46bd 4ad9 71bd
000000c0: 9465 71bd 3871 023e 4d2e 37bd 685d a5bd
000000d0: fa20 4cbd a579 723d 6895 39bd 7560 c03d
000000e0: 6602 c8bd afef 973d c033 4d3d 38fe 86bc
000000f0: ae4a 8dbd 127d 7c3c ebf7 7fbd bd82 c5bc
00000100: a5b8 a2bc fd52 b3bc e8b7 cd3d 4a8b 943d
00000110: 565e c93d b280 12bd f8d0 a0bd ded3 a2bd
00000120: a102 92bd 19b0 9f3d 50eb da3c 57f9 36bc
00000130: 6039 a73d 3e2c 133d c04f 86bd 191f 9fbd
00000140: ceea e3bc c358 5b3d 93b8 543c ea97 e6bc
00000150: 6595 bbbd 4ea1 0ebd 5b95 e53c 229b 183d
00000160: 3e31 2ebd 13ba 56bc eebf efbc 2cf9 9fbc
00000170: 0ccb ad3c a554 adbd c027 40bd b457 a0bc
00000180: 93c4 223d ff09 e0bd 3d70 bc3d a2d6 6f3c
00000190: e485 a63d 610b cabd 9cac 753d 3e05 973d
000001a0: c482 4d3e dc88 ab3d eda9 47be c34f 5b3d
000001b0: 9796 023e 3092 8a3d 2658 29be ac7b 3d3d
000001c0: 600b 28be ffd6 1fbe ac5a 153c cfb7 3dbd
000001d0: 67d0 28be c954 5e3d e79d fc3c 4ab4 ed3c
000001e0: 229e 42bd 278e 193c 462e 9f3c 81a4 133e
000001f0: b4fc ee3c 7fea 90bc 9752 103d 9303 a6bd
00000200: ecea 4b3e b6ff 61bd 659f 5e3e 0c7a 753c
00000210: d59b 49bd cd1a cebc 4196 863e 6a42 973d
00000220: 30b6 8abd 665e d8bd faa3 653e f7b0 5c3e
00000230: 5abc 513d 3f38 88bb d488 03bd bef8 7cbe
00000240: ba26 253e 342d 943e ae80 483d 5b16 083e
00000250: d3c9 573d 5e63 923d a439 d03c aa3e 033e
00000260: 2fac c13e 52e5 58bc df46 44be ae32 dcbb
00000270: e1b8 473e 0ba6 823e 903d a03e e281 04be
00000280: 1879 c4bd fbb4 babd f616 6e3a 3c34 1e3e
00000290: 3f10 143e a2af 1abd 886e 4fbd 4332 72bc
000002a0: d29c 38bd 506e 173c 161b 043e 5005 c63d
000002b0: 114d f23c 0a1d 00bd dd97 783e 5150 623c
000002c0: c935 b43a 8f49 923d a494 57bd cc03 6e3d
000002d0: d8a4 00be aab6 aa3d b681 0d3e efc1 1fbc
000002e0: 48fc 2ebe 9890 023e 0d82 acbd 64a7 03be
000002f0: 29a6 8d3d 6f72 4dbe f924 30be f925 f0bd
00000300: 4cfc 963d 41c3 153d 26e5 9dbd 5835 c2bd
00000310: 4629 1dbc 2b71 89bd 27ae dcba 57e3 d1bc
00000320: 73a9 afbd 63e8 9ebd ca4a c6bd b4f2 f83c
00000330: 7030 343d 1a94 a03d a23a 143c d821 dbbd
00000340: b5bb bdbd 3a9a 01bd 6197 c53b 1ddc a3bd
00000350: 4348 dd3c 328d a43c 8713 c1bc d3be bd3c
00000360: abd9 ba3d 6b54 d83d 220c 6bbd 73eb 37bd
00000370: 662a 71bd d1cc 81bb 0b9e abbc 2cd8 29bd
00000380: d6ab 29bb b9c4 653c ce32 b43d 8871 093b
00000390: 91d1 bebd 10af 07bd 52fc e43b d15d d3bd
000003a0: d4a9 f5ba e68c 90bc 0dba 043d 023c d13b
000003b0: 65e1 89bd e287 763d 1985 8d3c 637e 1abd
000003c0: ecf9 67bc f494 31bd d9dd 863d c716 e43d
000003d0: b3d2 b9ba 1639 123d 6ffb 63bd 3844 f93d
000003e0: 20df 493c 9981 b23c 0026 013d 62a5 abbd
000003f0: f36b 4f3d b931 cbbd f18d acbd 4c4f dfba
-0.030209059 -0.060995035 0.094307475 -0.09909522 0.08618232 0.031161053 0.029985838 -0.06466273
0.071718276 -0.072617345 -0.00032872468 -0.03558258 -0.06950142 -0.044028286 0.077043094 0.021683432
0.015583187 -0.06325187 -0.080279574 -0.08515331 0.103609435 -0.04743848 0.0955428 0.0150970835
0.019471345 0.0048849816 -0.026765347 -0.077120826 -0.016985005 0.03312221 -0.08738543 0.10460856
0.028771272 -0.06731901 -0.034837253 -0.031028382 -0.036040023 0.02404835 -0.011855727 0.093147784
0.042214643 -0.09546313 0.115268484 -0.07000876 -0.033638436 -0.08788634 -0.04855783 -0.059045114
-0.058934763 0.12738502 -0.04472189 -0.080744565 -0.049836136 0.05919804 -0.0453085 0.09393398
-0.097660825 0.07418763 0.05009818 -0.016478643 -0.0689901 0.015410678 -0.062492292 -0.024110192
-0.019863436 -0.021890158 0.10044843 0.0725313 0.09832446 -0.035767265 -0.078523576 -0.07950567
-0.07129408 0.0779726 0.026723534 -0.011167846 0.0816524 0.035930865 -0.0655818 -0.07769603
-0.027821925 0.053551447 0.012983459 -0.02814861 -0.09159354 -0.0348218 0.02802532 0.03725732
-0.04252743 -0.013105887 -0.029266324 -0.019527994 0.021214984 -0.0846341 -0.04691291 -0.01957307
0.03973825 -0.109394066 0.09201095 0.014638575 0.08131006 -0.098654516 0.059979066 0.07374047
0.20069414 0.08375713 -0.19498415 0.053542864 0.12752758 0.06766164 -0.16537532 0.04626052
-0.16410589 -0.15609358 0.009115856 -0.04631787 -0.16485749 0.054280076 0.030837012 0.029016633
-0.04751409 0.009372271 0.019431245 0.14418222 0.029173233 -0.017689941 0.035235014 -0.081061505
0.19913834 -0.055175506 0.21740492 0.0149827115 -0.04922088 -0.025159264 0.2628651 0.07385714
-0.06773031 -0.1056488 0.22425833 0.21551882 0.051205017 -0.0041570957 -0.03211291 -0.24704263
0.16128054 0.28940737 0.048950844 0.13289778 0.05268271 0.07147859 0.02541811 0.12816873
0.37826678 -0.013238268 -0.1916766 -0.0067199087 0.1950412 0.25517306 0.31296968 -0.12940171
-0.09593409 -0.091165505 0.0009082401 0.15449613 0.14459322 -0.037765153 -0.05064252 -0.014782491
-0.04507143 0.009242609 0.12900957 0.09668982 0.029577764 -0.031277694 0.24276681 0.013813094
0.0013748939 0.071429364 -0.05263199 0.05810909 -0.12562883 0.08335622 0.13819012 -0.009750827
-0.17088425 0.1275047 -0.08423243 -0.12856823 0.06916458 -0.20063184 -0.17201604 -0.11725993
0.073723406 0.03656316 -0.07709722 -0.09482831 -0.00959236 -0.06711038 -0.0016836569 -0.0256211
-0.08577242 -0.07759168 -0.09682234 0.030389167 0.043991506 0.07840748 0.009047182 -0.106998146
-0.09264318 -0.031641223 0.0060300087 -0.08000968 0.027011996 0.020086858 -0.023568882 0.023162281
0.09123548 0.105629764 -0.057384618 -0.044902276 -0.058878325 -0.0039611836 -0.020949384 -0.041465923
-0.0025889776 0.014023953 0.08798753 0.002097221 -0.09317315 -0.033125937 0.0069880867 -0.103206284
-0.0018742629 -0.01764531 0.032403994 0.0063853273 -0.06732444 0.06018818 0.01727538 -0.037718188
-0.014158707 -0.043354943 0.06585283 0.11137157 -0.0014177173 0.035698973 -0.055659708 0.12171215
0.012321264 0.021790313 0.03153038 -0.08381154 0.050640058 -0.09921593 -0.08425511 -0.0017037182

bias f4 [64]
00000000: e159 083d a47d 333d dd4c 8c3d 0c04 b8bd
00000010: 57b4 c33d 589b 6b3d 6a97 7e3d 5de4 983d
00000020: 0d5e 1dbd 1c6e b03d a645 873d 81f5 8dbd
00000030: af2a 5dbd 569d ab3d 7be0 c53d 3b34 033e
00000040: 86e9 75bd 4fe2 5abd f276 193d ac80 823d
00000050: c25d 463d c6fb 033e cea3 b1bd 730d dbbd
00000060: 987d 673d 4dbd 7c3d b368 bd3d 292b 983d
00000070: 5f52 803d 7e7c 15bc 3729 dfbd 22ba c43d
00000080: 792b 30bd b62b d53c 8e5e eebd 627c 1cbd
00000090: bbd0 babd 9419 053d 57df 1dbd 534c 5d3d
000000a0: 87fc db3c c8b9 0ebd b79e 51bd 9ca6 293c
000000b0: 700e 27bc 1756 c1bc b932 9f3d 7afd 2fbc
000000c0: f07d 733d caf2 cd3c 83d3 c8bc 926a 9ebd
000000d0: 1d45 48bd 1802 d83b f8f9 a03d 256f 2ebd
000000e0: 89cb 61bd 43e8 9d3d bcf8 133d 5cde 973d
000000f0: fede b9bd c43c 1abd ea50 97bc 3bcb 63bc
0.03328884 0.043820992 0.06850598 -0.08985147 0.095558815 0.057521194 0.06215612 0.07465432
-0.038419772 0.08614752 0.06605081 -0.06931592 -0.053995784 0.08379619 0.09661957 0.12812893
-0.06003716 -0.05343848 0.03746695 0.063721985 0.04842926 0.12889013 -0.086738214 -0.106959246
0.05651626 0.06170397 0.092484854 0.07430107 0.06265711 -0.0091239195 -0.10896533 0.096058145
-0.04301021 0.02602182 -0.116391286 -0.03820456 -0.091218434 0.032495096 -0.03854307 0.054027867
0.026853813 -0.034845144 -0.051176753 0.010354664 -0.010196313 -0.023600621 0.077733465 -0.010741586
0.059446275 0.025140185 -0.02451492 -0.077351704 -0.048894037 0.0065920465 0.07860178 -0.042586464
-0.055125747 0.07710316 0.036125883 0.074154586 -0.090757355 -0.037655607 -0.0184712 -0.013903434

weight f4 [8, 64]
00000000: adb8 f7bb 2b90 f3bd 08e8 cf3d b3c6 59be
00000010: 096b 19be fc90 b1bd 2d8b d63e 9fd8 d83c
00000020: cb02 153e be6f 6fbe 0928 0e3f c69c 80bd
00000030: d0c1 c73b 9202 2d3e 0a37 a5bc adb5 df3c
00000040: ae94 94bd 4f50 463e cfcf 30bc c55a 463d
00000050: 7c9a 55bd 66a8 3b3d 666c 15bd 16c7 2f3c
00000060: 0812 ba3d ebe5 35be 1ed0 d4bd b62b d7be
00000070: 0d29 0a3e 44f4 263d 7bdf 85bd bdf1 fd3a
00000080: 960c 82bd 66cc 12be afad 223e 7005 fdbc
00000090: 24b0 94be 804e 82be f4b1 0dbe e5e2 d83d
000000a0: c7be 48be 5147 0c3e ebaf 1639 66c4 38bd
000000b0: 87e9 223d 40f4 f2bd 461b 81bd 055d 99be
000000c0: 68ed 513e 957c d33e 4bd5 e3bd 718c 0d3d
000000d0: 26a9 babc 5912 a73d a26d 893e 86ed 213c
000000e0: 4095 853c b16f 443d bce8 2fbe 8555 da3d
000000f0: c0c3 ff3c 431d 5cbc 7b07 013f 9b4c 89be
00000100: b903 863d acf4 8d3e b371 acbd 7816 c5bd
00000110: 2627 6cbe d1d9 0f3e 95dd 1bbf 0b1a 523d
00000120: bc20 0d3e ee60 973d 26f1 113e 9757 ea3d
00000130: 7a50 b3bd 3945 5f3e 5ed8 75be 1123 d8be
00000140: 1a8a 5d3d 82d9 10bf f2d5 fabe b503 66bd
00000150: 1f2b f4be 49dc 09bf 944b 233e 1338 24bd
00000160: 2734 cb3e ec8d b2bd 41e5 82bc e318 cabe
00000170: 162c 52be ce0f 92bd 85dd adbe 75d2 343c
00000180: d1a0 803e 6ec1 7f3f a530 193d c289 7d3c
00000190: 39b4 50be 5895 9ebc 9963 dcbd bb8d 623e
000001a0: dd30 9f3d 43f8 243e bc7c c1bd bed2 c83d
000001b0: 364a 0b3e 8d17 5a3f 2709 a1bd 343e 033d
000001c0: 6765 113e c107 e23e fb3c d1bd 0ae1 363d
000001d0: ec2c b53b ac33 c73d 498c bd3e 112f 4f3d
000001e0: 4004 793d ea0d a7bd 733c 753e 9fdc 613d
000001f0: 9a2d 8b3e ab06 04be 9c94 e73e c225 a3bd
00000200: 2b28 df3d ca68 2abf fd72 0fbe 9d66 5bbe
00000210: 5815 ea3e 58c3 ad3e 1b21 fe3e 6d1e 543f
00000220: 11e8 a73e f284 493f 7833 e8be 26b5 fd3c
00000230: 87e9 103d 8dc7 b2be 13ec 433e 0374 563f
00000240: e7b3 823e 0c0b 6bbe dd83 673e 9d45 1cbd
00000250: 88f6 f7be da6c 073f 3c13 4cbe 6a8c 98be
00000260: 2020 01bf 6895 dabe b55b 0cbf e582 1d3f
00000270: 3f7a 63be 7f43 063e 1137 b2be 6cb6 30be
00000280: 9fb2 98be c290 62bf 5f67 44be 876a 3f3d
00000290: 76a1 2abf eecd e93b 95d2 303f faed 85bd
000002a0: d274 983d ef3b 05bf 45f0 2f3e f9a0 c33e
000002b0: 7899 da3e 077f 68bf e33b 80be 0ee0 57be
000002c0: 8027 553d f639 1dbf a799 ab3e 6e33 01be
000002d0: 00c3 96bc 676d 9bbe a725 213e ba92 1abe
000002e0: 2e1c 8dbd 501f 19be 4c8a 9b3e 2f15 c03c
000002f0: 8aeb 21bf 462b 03bf fa52 e9be 9a0b a33d
00000300: 6788 0c3e db66 71be d204 babb 6c6e 05be
00000310: 840a 79bd f12b a73d 560a 33bf b456 ee3e
00000320: 7ca6 bc3d 33df 653f 5cf7 06bf fb0f 93bd
00000330: a521 9cbd 735c 993e 1bf7 013f 86c2 fd3e
00000340: 3402 103c 6f97 5ebf 6f19 34be f77b 85bd
00000350: 2d56 0b3d 8da8 f13d 54c2 8c3e de11 843e
00000360: c3cb 043e 7eb3 44be 9a60 62be dbf5 29be
00000370: 18a3 6fbd 2fe7 4e3e 8f53 42be c0cb 4d3e
00000380: 343e d0be 7f18 093f 3101 bebd 91e1 ff3d
00000390: 04aa bebc 2bb0 e9be 6b98 e43e 8d6f 6dbd
000003a0: 4ecb 973f 8efb 18bf 46a0 443e e921 103e
000003b0: a9cf 35bd 36da 793e 7986 953f cf27 88be
000003c0: 9bed 68bc ce6d 62be 5ff6 51be 23d7 503e
000003d0: 80d3 b93d c8f3 813d adad c6be f721 243d
000003e0: 4411 2abe d6db aa3e 8a71 213f 011f b8bc
000003f0: bf16 3abf fc9e 3abe 0791 62be 3fdd d8bd
-0.007559857 -0.11892732 0.10151678 -0.21267204 -0.14982237 -0.08670232 0.41903058 0.02647048
0.14551847 -0.2338247 0.5552984 -0.06279902 0.0060961023 0.16895512 -0.020167846 0.02730831
-0.07254921 0.19366573 -0.010791733 0.04842641 -0.05214928 0.045814894 -0.03648033 0.010728618
0.090854704 -0.17763488 -0.10391258 -0.42025536 0.13492222 0.040760294 -0.06536766 0.0019374412
-0.06350057 -0.14335784 0.15886568 -0.030886382 -0.29040635 -0.25450516 -0.13837415 0.10590152
-0.19604026 0.1369908 0.0001437065 -0.045109175 0.03977349 -0.11862993 -0.0630403 -0.2995378
0.2050072 0.41305986 -0.11124667 0.034557763 -0.022785734 0.081577964 0.26841456 0.00988329
0.01630652 0.04795808 -0.17178625 0.10660843 0.03122127 -0.013434711 0.5040204 -0.26816258
0.06543679 0.27725732 -0.08420124 -0.09623426 -0.23061809 0.14047934 -0.6088498 0.051294368
0.13782018 0.07391535 0.14252147 0.11442488 -0.08755584 0.2180375 -0.24008319 -0.42214254
0.054086782 -0.5658189 -0.48991352 -0.05615588 -0.4768915 -0.53851753 0.159468 -0.04009254
0.39688227 -0.08718476 -0.015978457 -0.39472112 -0.2052463 -0.07131921 -0.33958068 0.011036505
0.25122693 0.99904525 0.037399907 0.015474739 -0.2038125 -0.019358322 -0.10761184 0.22124378
0.07772992 0.1611033 -0.09447619 0.09805821 0.13602528 0.85192186 -0.07863074 0.032041743
0.14198838 0.4414654 -0.10216709 0.044648208 0.0055290367 0.097266525 0.37021092 0.050581995
0.06079507 -0.08156951 0.23948841 0.05514204 0.2718323 -0.12893169 0.45230567 -0.07966186
0.10896333 -0.66566145 -0.14008708 -0.21425863 0.4571941 0.33938098 0.49634632 0.82858926
0.3279424 0.78718483 -0.45351768 0.030970167 0.03537896 -0.3491787 0.19133024 0.8377077
0.2552788 -0.22953433 0.22608896 -0.038152326 -0.48430276 0.5290047 -0.19929212 -0.29794627
-0.50439644 -0.42692113 -0.54827434 0.61527854 -0.22214602 0.13111685 -0.34807637 -0.17257088
-0.29823777 -0.8850213 -0.19180058 0.04673245 -0.6665262 0.0071351444 0.6907132 -0.06539531
0.07444157 -0.52044576 0.171815 0.3820875 0.42695212 -0.9081883 -0.2504569 -0.21081564
0.052039623 -0.61416566 0.33515665 -0.12617275 -0.01840353 -0.30356905 0.1573702 -0.15095034
-0.068901405 -0.14953351 0.3037895 0.023447601 -0.6325003 -0.51237905 -0.4557112 0.07961197
0.13723908 -0.23574392 -0.005676844 -0.13030404 -0.060801044 0.08162678 -0.69937646 0.46550524
0.09211442 0.897937 -0.5272119 -0.071807824 -0.07623605 0.29953346 0.5076768 0.49562472
0.008789588 -0.8694982 -0.17587827 -0.06517785 0.03401773 0.11799727 0.2749201 0.25794882
0.12968354 -0.19209096 -0.22107163 -0.16597693 -0.058505148 0.20205377 -0.18977188 0.20097256
-0.40672457 0.53553003 -0.09277571 0.12494195 -0.02327443 -0.45642218 0.44647536 -0.05796771
1.1858919 -0.5975884 0.19201764 0.14075436 -0.044387493 0.24399647 1.1681663 -0.26592872
-0.014216806 -0.221122 -0.2050414 0.20394568 0.090735435 0.06345326 -0.3880438 0.040071454
-0.16608149 0.33370847 0.6306387 -0.022475721 -0.7269096 -0.1822471 -0.22125636 -0.10589074

bias f4 [8]
00000000: c1c4 dc3d ad14 f6bd 43b1 1b3e 96ef 01bd
00000010: e4b0 51bd 2be2 03be 1c90 9c3e 247b 01bd
0.10779715 -0.12015662 0.15204339 -0.031722628 -0.051194087 -0.12879245 0.30578697 -0.031611577
