models/model_dqn_highLR.pth (torch, 646868 bytes, 10 tensors)

conv1.0.weight f4 [32, 4, 7, 7]
00000000: e202 34bc f0dc cebb 099c a8bd 590a a43c
00000010: aac8 7abd 3145 ffbc 0c90 a4bd e0c8 c1bc
00000020: a3af 2cbb ceae f1bd c2f4 863c 0b02 04bd
00000030: 8e9f eb3b 6a14 13bd a25b ffbc d6ff 9abd
00000040: 099a 2cbc 8d95 0fbd c394 cabd bd45 e0bc
00000050: fcbe a0bd 4f85 97bd ddb8 98bd 46d7 ec3a
00000060: 7c23 f9bd f18c c9bd 1ba8 86bd e259 b5bd
00000070: ed1c 1fbd 11ba edbd 014c 9b3c 599b d9bd
00000080: 349a 1c3c 4c0a 0abd cfd7 b5bd b5d5 baba
00000090: 6cfd 0cbd b70f 473c d5b8 1abd 1073 b4bd
000000a0: 400e 3ebd fa09 aebd c622 7ebc 7d14 953c
000000b0: d934 8dbb c94a c6bd 81a7 c7bc ce5e 58bd
000000c0: f94f f0bc 1581 dfbd 5894 0bbe 2add bebd
000000d0: ca8d f6bd d7f0 533c bde7 ccbc b309 83bc
000000e0: db30 30bd 54eb 88bd 1d28 1fbc 6347 eebd
000000f0: c786 28bd 1e34 c1bd f2f3 c0bc 1ac1 b8bd
00000100: 8f08 33bd 19cc a4bd 45b2 5f3c c90c b4bd
00000110: ee93 b4bd 8b97 b4bd abaf b2ba e335 b2bc
00000120: 84d1 bd3c 2a15 d6bd 9a74 eebd bfc8 cfbd
00000130: 0ac7 bfbd 1f11 8abc fb81 a3bc e920 623c
00000140: ede2 a8bd 4f04 eabd cb0e fcbb 1987 98bd
00000150: d446 11bb d900 80bd b7fc 99bb bcf9 cebd
00000160: 702d a7bd 8801 c3bc e4bf f9bc 76a0 82bd
00000170: 161d 44bb 6401 433b 526e c7bd 4a73 abbd
00000180: a55f a23c 07a5 b7bd a035 babd 9ff2 09be
00000190: 5e1b dabd 4897 43bd 4b9c 99bd e48f c7bd
000001a0: cfde 33bd 5846 eabd 173b 01be 96e5 d6bd
000001b0: 4a18 03be be8e babd a670 d33c 8d6d 03bd
000001c0: 5789 32bd 6662 07be 4610 e6bd f706 8ebd
000001d0: 72ed 0cbd aa0f debd 255f 9cbd 19e6 ddbd
000001e0: 62ed 39bd 93ce 93bd a6fc 4ebd 5180 c0bd
000001f0: 66c1 c1bd efb6 b2bd ca6f 8fbd 1ecb d0bd
00000200: 972a 6a3c f4cd 74bd 4c5c 87bb 9c3d bfbc
00000210: 153d d9bd 62d9 7c3b ad91 85bd d46d 95bd
00000220: 02c5 d6bd fcc6 eebd 8cf7 cdbc 3998 7abd
00000230: 0793 91bc 2e69 d5bd b3bd 4dbc e3bb c8bd
00000240: e12f 6dbd 9923 fbbc 58c4 0ebc 270c 02bc
00000250: e8f6 0bba 8a51 fabd df45 e2bc b64c 9cbd
00000260: fdc5 5abd 06d6 cabd 4537 0eba b6b6 f1bd
00000270: 968f e0bc 17b9 a7bc 7255 b7bc d674 acbd
00000280: 1c78 9e3c 5264 4cbd f306 67bd 1e9e 03be
00000290: ef57 7fbc 569c 66bd 2a66 a0bd 5516 813c
000002a0: d36c 4bbd 3643 d7bd 4562 d0bd a2b4 48bd
000002b0: 1f79 d2bc 9dad abbd 31d2 d9bd e268 b8bd
000002c0: 7da0 f3bd a95f 24bd ba04 29bc 510d 08be
000002d0: eaca 48bd 1f51 ebbc 42ac 05bd eb4c babd
000002e0: 1ef8 e7bc 7fe8 e5bc a156 1fbd dc14 a0bd
000002f0: 3b1f adbd d076 1bbd 8028 a0bd 7ef9 b1bd
00000300: d872 a3bc 6358 8abb d1da 94bd cc1f a7bd
00000310: 8333 f6bc 91a0 11bd 0b2c 7dbc 99e5 55bc
00000320: 1632 c7bd d3f3 71bd ca31 e03c f046 59bb
00000330: 2524 0dbd 8a9c 98bd 0c09 9cbd 100f c4bd
00000340: c4d6 61bd 7bf2 04bc 7e97 673c 9fcd fd3a
00000350: 5a7a c1bd 0c5f 9abd a0bc 31bd 7655 153d
00000360: 74ab b6bc 3f69 3fbd 205e 6038 33d8 69bd
00000370: 6c5f 9bbd 6eba c03c 9e97 7abd 0752 35bd
00000380: 8a9a ccbd cf75 8f3c 89b0 be3c e093 9dbb
00000390: 6ab7 9fbd 2212 c8bd 95fd afbd 71d0 d53c
000003a0: 6aec d13b c2b3 fd3c 43ad 083c a99e 0dbc
000003b0: 3119 cfbc 0ca6 a1bd fc59 b0bd e1ca bdbd
000003c0: d9c4 303b add2 7bbd 9a01 1dbd fcb2 82bd
000003d0: 9c02 17bd c3b6 a6bd b59c a0bd 8f07 1abc
000003e0: 8917 5abd b95d 363c 6d8f 5ebd 1074 acbd
000003f0: 82fc 35bd 699b 88bd 17c8 63bd 124f cfbd
-0.010987015 -0.006312959 -0.08232886 0.020024465 -0.061226524 -0.031160923 -0.08035287 -0.023655355
-0.0026349805 -0.118009195 0.016474131 -0.03222851 0.0071906513 -0.03590814 -0.031171624 -0.07568328
-0.010534772 -0.035054732 -0.09891655 -0.027377004 -0.078489274 -0.073984735 -0.07457135 0.0018069528
-0.12164971 -0.098413356 -0.06575032 -0.088550344 -0.038845945 -0.11607755 0.01895714 -0.10625333
0.009558249 -0.033701226 -0.08879053 -0.0014254363 -0.03442137 0.012149743 -0.037773926 -0.08811009
-0.04640031 -0.08497997 -0.01551122 0.018198246 -0.0043092784 -0.09682233 -0.024371864 -0.052824788
-0.029335009 -0.10913292 -0.13630807 -0.093195274 -0.12038763 0.012935839 -0.025012845 -0.015995836
-0.043015342 -0.0668551 -0.009714154 -0.1163471 -0.04114416 -0.09433769 -0.023553822 -0.09021206
-0.043709334 -0.08046741 0.013653343 -0.08791501 -0.08817278 -0.08817967 -0.0013632675 -0.02175421
0.023171194 -0.104532555 -0.11643334 -0.10145711 -0.093641356 -0.016853867 -0.01995944 0.013801792
-0.08246408 -0.11426603 -0.007692193 -0.07447643 -0.002216746 -0.06250162 -0.0046993154 -0.10106227
-0.081629634 -0.023804441 -0.030487008 -0.06378262 -0.0029924563 0.0029755468 -0.09737839 -0.08371599
0.019820997 -0.08967023 -0.090922594 -0.13471459 -0.10649751 -0.047751695 -0.07500514 -0.09744242
-0.04391366 -0.11439198 -0.12620197 -0.10493009 -0.12802234 -0.09109257 0.02581055 -0.032086898
-0.04358801 -0.1322113 -0.11233573 -0.06934922 -0.034406133 -0.108428314 -0.07635335 -0.10834903
-0.0453924 -0.07217135 -0.050533913 -0.093994744 -0.09460716 -0.08726298 -0.07003744 -0.101949915
0.014292381 -0.059766725 -0.0041308757 -0.023344807 -0.106073536 0.0038581719 -0.06521926 -0.07296339
-0.10486795 -0.11659047 -0.025142454 -0.061180327 -0.017770303 -0.10420452 -0.012557435 -0.098014615
-0.05790699 -0.030656623 -0.008713804 -0.007937468 -0.0005339221 -0.122225836 -0.027621208 -0.07631819
-0.053411473 -0.09904103 -0.0005425106 -0.118024275 -0.027412217 -0.020474 -0.02237961 -0.08420722
0.019344382 -0.04990036 -0.05640311 -0.12853286 -0.01558493 -0.056301437 -0.07831986 0.015757719
-0.04966433 -0.10510866 -0.101749934 -0.04900039 -0.02569252 -0.083827235 -0.10635794 -0.0900438
-0.11895845 -0.04013029 -0.010316068 -0.1328633 -0.04902164 -0.028725205 -0.03263498 -0.09096702
-0.028316554 -0.028064964 -0.038900975 -0.078164786 -0.08453222 -0.037955105 -0.07820225 -0.08690165
-0.019952223 -0.0042219623 -0.072682984 -0.08160362 -0.03005386 -0.03555352 -0.015452395 -0.013055229
-0.0972635 -0.05907042 0.027367491 -0.0033153854 -0.0344583 -0.074517325 -0.07618913 -0.095731854
-0.055136457 -0.0081144525 0.01413524 0.0019363648 -0.09447165 -0.0753766 -0.043392777 0.036458455
-0.022298552 -0.04673123 5.3493422e-05 -0.05709095 -0.0758656 0.023526397 -0.06117975 -0.04426768
-0.099904135 0.01751223 0.023277538 -0.004808888 -0.07798655 -0.097690836 -0.08593289 0.02610037
0.0064063566 0.030969504 0.00834209 -0.008643785 -0.025280567 -0.07892999 -0.08610913 -0.09267212
0.00269728 -0.061480213 -0.038331605 -0.06381795 -0.036867723 -0.08140328 -0.078423895 -0.009401216
-0.0532451 0.011130744 -0.054336 -0.08420575 -0.044430263 -0.06670267 -0.055610742 -0.10122503

conv1.0.bias f4 [32]
00000000: 7eaa bbbd 7d41 f33c 6c66 fdba 0323 3abc
00000010: a2ae 703d aa10 2ebd c76b 2cbd 2d8e b2bd
00000020: abeb 05be 0edb 8cbd 3738 72bc 5179 6040
00000030: 861f e9bc 5f24 e1bc b664 7bbc ee45 97bd
00000040: 79fb 863a e228 48bd 8134 92bd 8e3c 97bd
00000050: 6b72 b3bd e21c ffbd 0674 f1bc 00ed c23b
00000060: dd64 4cbd be43 13bd aba0 93bd f0a7 b4bd
00000070: 8c0a 8bbd 4daf abbc 283c 08bd d3fd d6bc
-0.09163378 0.029694313 -0.0019332892 -0.0113608865 0.058760293 -0.04249636 -0.042094972 -0.08718524
-0.13078181 -0.06877719 -0.0147839105 3.5074046 -0.028457414 -0.027483163 -0.015343836 -0.07386385
0.0010298333 -0.048867114 -0.071389206 -0.07384597 -0.08762058 -0.12456681 -0.02947427 0.0059486628
-0.04990088 -0.035953276 -0.07208379 -0.08821094 -0.06789121 -0.020957613 -0.033260494 -0.02624408

conv2.0.weight f4 [64, 32, 5, 5]
00000000: 3bed 1dbd 127a 53bd 8c95 44bd 0fee a8bc
00000010: 51e2 a4bd 3f66 06bd d07b aebd 599b 54bc
00000020: 1464 04bd 936b 00bd 8112 97bd 8071 9abd
00000030: 465d 92bd 39cd a2bd 1f5b aabc 6122 35bc
00000040: 5f4b 63bd ea7b 72bd a37e 19bd 7ac3 3fbd
00000050: 3dc1 9bbd 4d6b 97bd 8384 07bd 474f 63bd
00000060: 8da8 5cbd f812 c1bd 7fd8 68bd 09b4 b9bd
00000070: 36ab aabd 3259 5abd 5b91 1ebd bbf8 24bd
00000080: 7f92 6dbd 0575 9cbd aa8b 3abd 1879 2cbd
00000090: 8dde 68bd 2af6 7ebd a46c 84bd 1132 8fbd
000000a0: 6406 4fbd 1d78 81bd 8f4d dfbd 7792 c2bd
000000b0: e0ca d9bd 9d79 acbd a080 91bd cd36 b4bd
000000c0: 8c2a dabd d172 c6bd c7cd 993d 42c5 6b3d
000000d0: e0b0 5d3d eab4 863d ac62 573d 6809 273d
000000e0: 3a7f 333d 3278 98bd e7bf bebd cdd1 e03c
000000f0: 1f1c 3f3d a728 963d 6ccc c13d c50d 723d
00000100: 8c6f ac3d 0ced 923d 4792 023d b286 2d3d
00000110: cb3c 4e3d f93b fd3c f0ae 61bd 5093 53bd
00000120: cc6b b3bd 847d 573d 7277 ec3c 0c14 c33d
00000130: 79cc a53d bc26 3f3d fe22 b93d b363 1a3d
00000140: 73db b73d 8e12 3e3d 68ec 8f3d 8207 11bd
00000150: fae5 31bd 5dab 52bd 75fc 613d acac 74bd
00000160: 9246 f4bc 0248 463d ab74 92bd 9e6b 63bd
00000170: bd1a 9ebd 9737 3f3d bca0 803d 060d 09bd
00000180: fabc 46bd 62b2 a7bd 8cb4 a63d 3e9d 403d
00000190: 1aaa 8d3d a882 7e3d 28b4 ae3d ffa2 553d
000001a0: 0c24 3b3d 0522 593d 6b4c 773d 65a4 313d
000001b0: 0ec2 ac3d 5857 283d f570 863d e6cb 063d
000001c0: 0300 643d 77c7 563d 060c 3c3d bfd7 a03d
000001d0: 135a e93c 0b96 823d a76f 683d 33ab 2a3d
000001e0: 034d b33d 6972 a83d 63df 903d f1cc 783d
000001f0: c21f a33d 665d 363d d122 003d 0878 c03d
00000200: 06c3 3f3d 0083 893d bedd 783d cef1 b73d
00000210: 3e01 c33d 5d89 143d 2a6d 743d 0990 003d
00000220: f2c0 a93d e21c c03d fc99 3e3d 511b 883d
00000230: b60d 563d 37e2 523d 606e b43d 0ed8 de3c
00000240: 3d26 623d 515f 753d a182 ec3c 5fc0 983d
00000250: 2a46 ab3d 1af2 023d ab97 04bd 3b08 46bd
00000260: cf7a 53bc cc7c a2bd 2b23 83bc 9562 72bd
00000270: 8e1e 85bc a930 83bd 680c 24bd 2ad7 1abd
00000280: b32e c5bc b829 f1bc 5114 d7bc 8fef 5abd
00000290: 6b81 97bd 3ec5 3abd aeb6 61bc 2d0e 7dbc
000002a0: 1bdc 88bd 1ea5 b1bc 1c8e f6bc eab8 56bd
000002b0: 7e18 dbbc a698 42bd 18c2 2abd bf13 173d
000002c0: 6a23 643d 6bde c13d 70d8 a73d dcf0 003d
000002d0: 50c2 6d3d f01b a93d f2ff 373d 76d5 633d
000002e0: d619 9f3d c4d7 b73d 8fae bc3d e55a 0d3d
000002f0: 5f0b db3c ee28 ae3d 6dc3 6a3d 095d bc3d
00000300: 8c62 ae3d f271 3d3d 01bc 8f3d f359 933d
00000310: e025 423d c40b bc3d 79ee 803d 84a6 463d
00000320: 1d69 e33c a0f0 b43d 3fc3 cc3c 6a1a b23d
00000330: 2b43 433d 4777 5b3d 48c5 843d ee2a c23d
00000340: 76a6 163d 1d22 0f3d 4c82 a63d b6a4 2f3d
00000350: 5fb0 403d 88d9 a43d 3ff4 393d f71d a63d
00000360: 4580 3d3d ffaf b23d 931f c33d ba01 853d
00000370: b1c5 453d ffb8 a33d fb3a 8f3d af9c 763d
00000380: 2097 bb3d e03d 6d3d b10a 40bd 7c68 3e3c
00000390: 107d 5b3d af7a 6f3d 0361 7f3d 317d 753d
000003a0: b37b b13d c250 a73d a4bb 383d 69ce bb3d
000003b0: 09df a33d edf8 943d e8d1 823d 88b2 213d
000003c0: 8109 a6bd 1608 763d c61f 093d 4358 943d
000003d0: 94c0 e43c 9a6c bbbd d263 9bbd a296 a43d
000003e0: 7ba3 b33d e12b f83c 61d6 8cbd 052f 1ebd
000003f0: 94ab 58bd 7a73 9abd 8f1b 16bd 595e 9bbd
-0.03855632 -0.051630087 -0.04799418 -0.020621328 -0.08050979 -0.032812353 -0.08519709 -0.012976491
-0.032322004 -0.03135259 -0.07376576 -0.0754118 -0.07146697 -0.07949299 -0.020795403 -0.01105556
-0.0554918 -0.059200205 -0.037474286 -0.04681728 -0.07605217 -0.07393513 -0.033085357 -0.055495527
-0.05387168 -0.09427446 -0.05684709 -0.09067542 -0.08333437 -0.05330772 -0.03871284 -0.04027627
-0.058001038 -0.07639507 -0.04554335 -0.04210767 -0.056852866 -0.06224648 -0.06466034 -0.06991971
-0.050543204 -0.06321738 -0.10903465 -0.09500592 -0.106343985 -0.084216334 -0.071046114 -0.08799515
-0.106526464 -0.09689868 0.07509952 0.057561167 0.05412376 0.06577475 0.052584335 0.040780455
0.043822505 -0.074448004 -0.09313946 0.02744379 0.046657678 0.073319726 0.094628185 0.059095163
0.084197134 0.07174119 0.031877782 0.042364784 0.050350945 0.030912386 -0.055098474 -0.05165416
-0.08760795 0.052609935 0.02886555 0.09525308 0.08095641 0.0466678 0.09039877 0.037692737
0.089774035 0.046404414 0.07027513 -0.03540755 -0.043432213 -0.051432956 0.055172402 -0.059734985
-0.029818807 0.048408516 -0.07151159 -0.055522554 -0.07719944 0.046683874 0.06280658 -0.033459686
-0.048520066 -0.08188321 0.08139905 0.047024958 0.0691721 0.062136322 0.08530456 0.0521574
0.045688674 0.05301096 0.060375612 0.04336967 0.084354505 0.041098922 0.065645136 0.032909296
0.055664074 0.05243632 0.045909904 0.0785365 0.028485334 0.06376275 0.056747105 0.041667175
0.08754923 0.08224947 0.07073858 0.060742322 0.07965042 0.044522665 0.031283204 0.09397894
0.04681685 0.067144394 0.060758345 0.089816675 0.09521721 0.036263812 0.05967442 0.031387363
0.082887545 0.09380509 0.04653357 0.06645835 0.05225917 0.051485267 0.08810115 0.027202632
0.055212248 0.059905354 0.028870882 0.07458567 0.08362992 0.031969167 -0.032371204 -0.048347693
-0.012907698 -0.07933959 -0.01600798 -0.059176046 -0.016249921 -0.064057656 -0.040050894 -0.037802853
-0.02407012 -0.029438838 -0.026254805 -0.053451117 -0.073977314 -0.04559826 -0.013776464 -0.015445274
-0.06682607 -0.02168518 -0.03009706 -0.05242244 -0.026745077 -0.04750886 -0.04168901 0.036884066
0.055697836 0.09466251 0.08195579 0.0314797 0.05804664 0.08257282 0.044921823 0.055623494
0.077686 0.08976701 0.09212982 0.034510512 0.02673882 0.085039005 0.05731528 0.091974325
0.0851489 0.046251245 0.07018281 0.07194891 0.0473994 0.091819316 0.06295485 0.048498645
0.027760083 0.08834958 0.024995444 0.08696444 0.04767148 0.05358055 0.06482941 0.094808444
0.036779843 0.034944642 0.08130321 0.04288169 0.0470432 0.08049303 0.045398947 0.08111184
0.046264905 0.08724975 0.09527507 0.0649447 0.048284236 0.079942696 0.069936715 0.06020802
0.09159684 0.057920337 -0.046885196 0.011621591 0.053586066 0.05846661 0.062348377 0.059933845
0.08666172 0.081697 0.045100823 0.09170229 0.08001525 0.07274041 0.06387693 0.0394769
-0.081072815 0.060066305 0.033477567 0.07243397 0.02792386 -0.091515735 -0.075873986 0.080365434
0.08771416 0.03029436 -0.06876827 -0.03861906 -0.052898005 -0.07541557 -0.036647376 -0.07586355

conv2.0.bias f4 [64]
00000000: 88a6 7ebd a2a8 abbd c319 fdbd 1a6a 2fbd
00000010: 72ab bdbd 0341 7abd 1f85 33bd 0d79 c3bd
00000020: afd7 39bd 6f91 59bd 81d3 50be 091f d6bc
00000030: 899d 3ebd b61e acbe 91e5 b0be 8fdb 5bbd
00000040: 4a81 6cbb e5ca 2fbf 3113 87bd 0ca5 44bd
00000050: 828c 8cbd a103 34bd 8e39 8cbe 2987 a1bd
00000060: 66fb 27bd 27ec 4bbd 183f 8ebd 3fa3 babe
00000070: 834d 2abd 226d 87bd c8c2 8ebd 7652 48be
00000080: bf86 f0be 8e77 bdbe 6ed9 5fbd 1ded a4bd
00000090: 2418 9bbd 600b 9ebd 1329 94be e530 6abd
000000a0: 8c5e 02be f8e7 68bd da30 2fbd 3c68 5fbd
000000b0: 5ca6 94bd 1445 99bb dec5 03bf 3e3d 28be
000000c0: 0c7f 80bd e407 9fbe fd37 8cbd bea7 cebe
000000d0: f596 8dbd 8d66 a7be aba2 35bd 1e4d 0bbd
000000e0: ce23 48bd bf47 6cbd 5cdd 4dbe 5b4d 5fbd
000000f0: c94a 24bd f0de 33bd 060e 60bb c81c b8be
-0.062170535 -0.083817735 -0.12358429 -0.042825796 -0.09261216 -0.061097156 -0.043828126 -0.09544573
-0.045371708 -0.053117212 -0.20393182 -0.026137846 -0.046536956 -0.3361718 -0.34550145 -0.053676184
-0.0036087804 -0.6866897 -0.06595457 -0.048008963 -0.06862737 -0.043948773 -0.2738766 -0.07887108
-0.041011237 -0.04978576 -0.06945628 -0.36452672 -0.041577827 -0.06612612 -0.06970745 -0.19562706
-0.46977803 -0.37005275 -0.054650716 -0.08053038 -0.07572964 -0.07717013 -0.28937587 -0.057175536
-0.1273138 -0.056861848 -0.042771198 -0.054542765 -0.07258293 -0.004677424 -0.51473796 -0.16429612
-0.06274232 -0.31060708 -0.068466164 -0.40362352 -0.069135584 -0.32695428 -0.044344585 -0.03400909
-0.04886227 -0.05768561 -0.20103973 -0.05451713 -0.040110383 -0.04391378 -0.0034188046 -0.35959458

conv3.0.weight f4 [64, 64, 3, 3]
00000000: a037 9b3c 0bc4 013d 3daa 85bd 7264 23bc
00000010: 753e f7bc baab 23bd c762 8f3c aa2c 11bd
00000020: a269 16bd 23a0 fabc b635 dcbb 16b1 f6bc
00000030: 8b56 30bc d6f8 c1bc 866a 1b3d e32b 8d3c
00000040: 1abf 16bd 6648 e0bc c856 813d 137e 6c3c
00000050: aac2 a9bd e3d4 b93d bd8e 943d b35d ac3d
00000060: 7a22 973d c4db 423c 967f 4bbd 3f1c 1bbd
00000070: 5bc2 34bd 6c2e 1f3d e9b4 03bd 280e 64bd
00000080: f883 d0bc a874 7ebd e308 a4bd 46ed e5bc
00000090: 4815 d5bc 0039 073d 9667 d33c ce41 133d
000000a0: 3830 a23c 00e3 773c 1036 aebc d64b f63b
000000b0: 9642 bfbb 8acc 97bd d6d9 6dbd 48c3 34bd
000000c0: b5ba 6fbd 9ff5 94bd f2a1 a8bd 94e5 66bd
000000d0: a05b f5bc a37d b2bc 4bfe 623c e02f 95bb
000000e0: dcb0 143d 66b3 28bd e0a3 a6bc 00bb 02bb
000000f0: 6665 95bc c6f5 cfbc 5752 13bd 467e 1ebd
00000100: 6604 5b3c d6d6 273d 5846 c83c 878b 233d
00000110: a7e0 1c3d 8604 16bd 7b05 37bc b0d7 21bd
00000120: 2ab0 093d e0d2 6d3c 6cc1 053d 961b 283c
00000130: 70a5 173d 3885 82bc 337d fb3c cb8c 573c
00000140: e049 f2bb 4675 93bc 9b13 a83c 93ca ab3c
00000150: 80d0 193b 544f 11bd d618 513b 5657 0f3c
00000160: e653 26bd 56e8 48bb 2b83 503d fc46 1e3d
00000170: f267 d43c bfc2 b1bd 3ea4 74bd 2f59 84bd
00000180: db47 413d 2a21 5ebd cafa bcbc 35c3 09bd
00000190: 8b79 74bc 3ad2 05bd 757a 5ebd e558 9cbd
000001a0: d02f 21bd 375a b8bd 8234 9cbd a6c1 78bd
000001b0: 2eac d8bc b497 08bd 202f 17bd 5faf 23bd
000001c0: c0d2 dabc 8b8a e33c a0d9 233c 8616 d03c
000001d0: c35e 1ebd f222 033d c820 d53c 2b6e 323c
000001e0: d874 cabc 2b30 8eba 7041 6c3c a744 89bd
000001f0: 3838 78bd 299d 04bb 30da 87bc 6bf6 49bc
00000200: cb46 dbbc c6f7 a6bc 7be6 76bc 4487 20bd
00000210: f6ed b33c a8dd 05bd 4ed1 dc3c 36b2 dfbb
00000220: 7633 233d 563d 95bb 7fd0 163d e2b5 05bd
00000230: 56e4 2b3b 0b96 cbbb 6eae db3c 8009 783c
00000240: 6f7e 01bd 926e 83bd d3cf c4bc 32e6 6abc
00000250: 99bf bcbc 2c01 94bd ce1c 66bd 1e58 aebd
00000260: dfea 3ebd 1638 523c 4e9f 153d 52e8 0cbd
00000270: bbff 5a3c 9072 2a3c e0fe b9bc 40db 673b
00000280: 2ef3 c7bc 5661 1d3c c0fe 0bbd ee1c 0dbd
00000290: 6eb4 88bc db5b ecbc 833c f43c a055 a6bb
000002a0: b8e2 cd3c 5be1 193c 505e 05bd 8244 30bd
000002b0: a8bb 8bbd 0e64 6dbd b6b3 a6bc f2c8 bbbd
000002c0: de3b 9cbd 4ce4 b7bd 5d31 a5bd 8d25 973c
000002d0: a43d 143d 6f40 ecbc 11ce f5bc 191c 3dbd
000002e0: 6f7a bb3c 1cae b6bd 90ce 58bd e3ed b8bd
000002f0: 1d8f 08bd 2c37 9c3d c996 a03c 75ab 9cbc
00000300: be18 4bbc 6010 88bd 5275 23bd f23d babd
00000310: 0886 73bd 56fd 46bd cb5c a6bc 760c 513c
00000320: f075 bdbc 6bb9 a6bc ebf0 213b d33d ec3c
00000330: c004 a0bb 102c 963c 30f9 33bc bb2c b93c
00000340: cbf1 73bc 0878 dc3c e0fa cfbb ec03 283d
00000350: 6ba7 863b 96ed 9a3b f843 ec3c cb0a 35bc
00000360: a36d 0c3d 8b09 a2bc abfc 02bb b6f0 cabc
00000370: f872 9b3c a364 013d c0b6 293b 7609 98bb
00000380: 96a5 f13b 7697 973b 169c 58bb e6e2 d73c
00000390: 0e3c 91bc a053 bcbc 76d1 5b3c c674 0b3c
000003a0: f654 ca3c feaa b8bc d680 9bba 36f3 02bc
000003b0: 16a1 6c3c fbe7 8a3c d61c 013c 36be d4bc
000003c0: b06a 23bd d615 07bb 80f3 ccbc 2b8b b13c
000003d0: 18ba 01bd 80cd ac3a c3c2 a0bc 86c3 babc
000003e0: 6bc4 f63b 2b72 06bc 8bbc 1d3c 661e bcbc
000003f0: ca0e 7bbd dec2 9abd 9464 82bd 67d1 e9bc
0.018947423 0.0316811 -0.06526611 -0.0099726785 -0.030181149 -0.039958693 0.017503155 -0.035442986
-0.036721833 -0.030593937 -0.00672027 -0.030113738 -0.010762821 -0.023678225 0.037943386 0.01723284
-0.036803342 -0.027378272 0.0631538 0.014434355 -0.08289082 0.09073808 0.07253788 0.08416309
0.07379623 0.0118932165 -0.049682222 -0.037868734 -0.044130664 0.03886263 -0.03215495 -0.055677563
-0.025453553 -0.06212297 -0.080095075 -0.028067242 -0.026011124 0.033013344 0.02580623 0.035951428
0.019798383 0.015129805 -0.021266013 0.0075163646 -0.005836795 -0.074120596 -0.058069073 -0.044131547
-0.058527667 -0.07273411 -0.082340136 -0.056371287 -0.029950917 -0.021788424 0.0138545735 -0.0045528263
0.03630148 -0.041186713 -0.020341814 -0.0019947886 -0.018236827 -0.025385749 -0.035967197 -0.038694642
0.013367748 0.040976368 0.024447605 0.039927986 0.038300183 -0.036625408 -0.01117074 -0.039512336
0.03361527 0.014515609 0.032655165 0.010260483 0.037023008 -0.015932664 0.030699348 0.013156126
-0.0073940605 -0.018000256 0.020517161 0.020970618 0.0023470223 -0.035476044 0.0031905673 0.00874885
-0.040607356 -0.003065606 0.05090634 0.038641915 0.025928471 -0.08679723 -0.059726946 -0.06462323
0.047187667 -0.054230846 -0.023068804 -0.03363343 -0.014921556 -0.03267119 -0.054316003 -0.07634143
-0.03935224 -0.09001582 -0.076272026 -0.060731553 -0.02644929 -0.0333478 -0.036910176 -0.03996217
-0.026711822 0.027776023 0.010000616 0.025401365 -0.03866459 0.03201575 0.026016608 0.010890524
-0.024713919 -0.0010848095 0.014419898 -0.067025475 -0.06060049 -0.0020235276 -0.016583532 -0.012326817
-0.026767155 -0.02038182 -0.015069599 -0.0391915 0.021964055 -0.03268209 0.026955273 -0.0068266643
0.039844 -0.004554431 0.03681993 -0.03264416 0.0026228628 -0.006212955 0.026816573 0.015138984
-0.031614717 -0.06417574 -0.02402488 -0.014337109 -0.02304058 -0.07226786 -0.056179814 -0.08512901
-0.04661071 0.012830755 0.036528878 -0.034401245 0.013366635 0.01040329 -0.022704542 0.0035378486
-0.02440795 0.009605726 -0.034178495 -0.034451418 -0.016687598 -0.028852394 0.02981401 -0.0050761253
0.025132522 0.009392108 -0.032560647 -0.043034084 -0.06822902 -0.057956748 -0.020349365 -0.09169187
-0.07628606 -0.08979091 -0.08066056 0.018450523 0.036191598 -0.028839318 -0.030005487 -0.046169374
0.02288553 -0.089199275 -0.05293137 -0.09029748 -0.03333961 0.07627711 0.01960315 -0.019124726
-0.012396036 -0.06643748 -0.039906807 -0.090938464 -0.059453994 -0.048581444 -0.020307919 0.012759319
-0.023127526 -0.020352086 0.0024710249 0.028838074 -0.0048833787 0.018331558 -0.010984704 0.022604337
-0.014889191 0.026912704 -0.0063470453 0.041019365 0.0041093132 0.0047280295 0.028841004 -0.0110499365
0.034284245 -0.019779941 -0.0019987028 -0.024772983 0.01897572 0.031590115 0.002589628 -0.0046397997
0.0073744757 0.00462621 -0.003305202 0.02635331 -0.017728832 -0.022989094 0.013416639 0.008511728
0.024698716 -0.022542473 -0.0011863958 -0.007992556 0.014442703 0.01695632 0.00788041 -0.025969606
-0.039896667 -0.002061238 -0.025018454 0.021672806 -0.031671613 0.0013183802 -0.01962412 -0.022798311
0.007530739 -0.008205931 0.009627472 -0.022963714 -0.0612934 -0.07556699 -0.0636684 -0.028542234

conv3.0.bias f4 [64]
00000000: 934b 94be 4b37 48bd 750d 84be 2422 9fbd
00000010: 58c4 74be a9b5 89bd 8f92 edbd b59b 73bd
00000020: 329f 22be 056a 0abe 4926 3cbd 758d 3ebc
00000030: ef9f 67bd 2cc7 5fbe f779 70bd af82 11bc
00000040: ebea b1be de2a 82bd d486 38be e44b 8ebd
00000050: 1fa8 6ebd 0b46 f6bd a243 b9bd 953c 1cbe
00000060: 7375 42bd 28b2 29bf 2323 56bd 2643 13be
00000070: eb5d 64be 1048 27c0 769f a6be 8e39 69bd
00000080: 5814 a3bc d6d7 4dbd 7e7f 68bd ac67 1fbe
00000090: 8d28 40bd 777f 29bf fcbb aabd 4a83 5ebe
000000a0: e345 f3be 54ee a1be 8e78 5abc 173b 97bd
000000b0: 6b2f 30be 11b8 82bd 76ac b3bd 51d9 353e
000000c0: 2b65 dbbd 02ee 9bbd e1fe bfbd 55b9 59be
000000d0: 7573 3f3f 033d 8fbd cc5a 5dbe 41cd 89bd
000000e0: 663b f7bd 01b5 94be 66ed 32bd e77c a1bd
000000f0: 48c4 c3bd 8cfe 39be 8459 a1bd eb7f 0dbe
-0.2896391 -0.048880856 -0.25791517 -0.07770184 -0.23903024 -0.06724102 -0.116002195 -0.059474666
-0.1588104 -0.13517006 -0.04593495 -0.011630406 -0.05654901 -0.21853322 -0.058710065 -0.008881255
-0.3474954 -0.063558325 -0.18020183 -0.06948069 -0.0582658 -0.120250784 -0.09046103 -0.15257485
-0.04747529 -0.6628747 -0.052279603 -0.14381084 -0.22301452 -2.6137733 -0.32543534 -0.056939654
-0.019907162 -0.050254665 -0.05676221 -0.15566891 -0.046913672 -0.6621012 -0.083366364 -0.2172977
-0.47514257 -0.31627142 -0.013334407 -0.07384317 -0.17205589 -0.06382764 -0.08773129 0.17758681
-0.10712656 -0.07613756 -0.09374786 -0.21262105 0.7478555 -0.06994059 -0.21616668 -0.06728602
-0.12071876 -0.29044345 -0.043683432 -0.07885151 -0.09558922 -0.18163508 -0.07878402 -0.13818328

fc_layers.1.weight f4 [128, 512]
00000000: 4df0 28bd 09a0 1b3d 68e3 debb 954c 1dbb
00000010: 4574 efbc 8e9f e3bc de06 28bd ab50 0a3d
00000020: 37b8 2f3d 95a2 58bc 2d12 bf3c a9c5 e1bc
00000030: d7b3 993a c342 b6bc 8ae4 59bc 3e76 e73c
00000040: 0f02 18bd b533 ba3c afd9 8c3c 5d17 1b3d
00000050: dc1f 66bd 24cd 76bd 1b98 a1bd 6e7f 18bc
00000060: 2d16 a9bd 2bf2 b0bd f7e8 cabd 93b6 ccbc
00000070: e134 8ebc ec3d 9ebd 495b 64bd 0252 aabd
00000080: f684 cbbd a003 5abd 633b 8fbd b907 5dbd
00000090: 370d c4bc c508 07bd bcfb aebd 8c24 bdbd
000000a0: 9f73 5cbd 30f0 61bd c7a9 06bd e87e 64bd
000000b0: 2f53 c4bd 2908 82bc d1d5 39bd 1a6d 86bd
000000c0: bc85 3abd 0264 f3bc e9e6 34bd e2b1 8bbc
000000d0: 3f12 81bd 585a 2abd 5df8 bbbd a449 23bd
000000e0: 8ad7 84bc d9d1 16bd b3a8 2cbd 2c03 c3bd
000000f0: 1ba5 cdbd e369 f93b d093 4abd 873c a8bc
00000100: 4e46 36bd 02e0 22bd f00d 56bd 0eae 9dbd
00000110: 0d30 6fbd c081 89bd a6cd d1bd 9bd7 5dbd
00000120: c056 87bc 20ec d3bd 159c 87bd ab0e 61bd
00000130: 984a 5cb9 6df1 c3bd d809 c0bd 770e 993b
00000140: c07c 2fbd bde3 59bd cf6f 93bd 8b9d e6bc
00000150: d4d3 eebc e87d 34bd 711b 91bd 7010 adbd
00000160: 442c f3bc 829b bcbd 3a56 b3bd 4339 2fbd
00000170: dc9d 7ebd d9b8 cdbd de17 84bc 0aea 6dbd
00000180: f741 083d b444 9dbc d3c1 93bc 8821 33bc
00000190: eb88 9fbc b149 573c 9a53 f9bc 99d4 c13b
000001a0: a151 e5bc 8eb2 a7bd d36f 6abd 7d1e 85bd
000001b0: 2c50 76bd a8dd 7cbd e3f1 c8bd 6d35 4cbd
000001c0: 8bec 0e3d 3781 803b e42f 1f3d 0482 253b
000001d0: c563 fcbc 5e68 283c 1bd9 2d3d c28f 1b3d
000001e0: 18c2 6d3c 5d16 25bd aaac 2abd b5c7 8abc
000001f0: dfff 853b f750 26bd de55 0a3d 296a 1e3d
00000200: e9b7 00bd 7e35 29bd 28b9 3abd 356c 14bd
00000210: 3ab4 f3bc d832 c7bd d6e5 00bd a351 89bc
00000220: 63e4 45bd 72ad 56bd 4268 c6bd 0bd1 2bbd
00000230: b2da cebc b464 bfbd a182 d2bc dacd b5bd
00000240: 80b4 6ebd 062b c7bd 92cd b7bd 682e 70bd
00000250: 654e acbd 989e acbd 7f5f 82bd ad28 c7bd
00000260: 10a2 92bd 31b6 c1bd 9001 2ebd e48c 8ebd
00000270: a540 fcbc a7de 12bd c1ed cdbd c457 8ebd
00000280: e768 c3bc 44f8 afbd 866a c0bc 7922 1dbd
00000290: 7e26 acbd 8feb 82bd 7fa5 40bd e4d0 cebd
000002a0: 633f 72bc 7643 76bd 6bea ca3c c915 91bd
000002b0: b0f1 10bd 93f8 0abd 0c33 633c dc49 b13c
000002c0: b124 82bd 0f98 72bd 8205 59bd fced 44bd
000002d0: 8560 aebd dfb5 8cbd 2064 32bd 03a8 b6bd
000002e0: db83 c6bc b7bf 23bd 7a10 c3bd 956e 53bd
000002f0: e3fb afbd 898e 9dbd acb2 7bbd 37a2 54bd
00000300: 9438 203d fc0c 2abd 3daf 873c 564e c1bc
00000310: f286 573c b33b e93c b5af 883c 3e48 0f3d
00000320: 0936 bdbc 6f78 b7bd 35a1 debc 0d0b 40bd
00000330: 38e0 7ebd 67d3 8ebd ba18 adbc 1fde 3bbd
00000340: 56f7 57bd 2d54 a7bc fe1d 6bbd adc7 c3bd
00000350: fbf7 51bd e1b2 73bd e4e8 b7bd 0e63 cfbd
00000360: 2688 303d cfa0 30bd fd3e 26bc 35e2 07bd
00000370: 4705 74bd 3b17 a7bd 2cf1 c2bd b5c2 a2bd
00000380: cabd 78bd d919 49bd 9a5e afbd 141d b1bd
00000390: 057c 26bd b9df d3bd 947e 89bd e821 32bd
000003a0: 042b a5be 061c a1be 676b 8cbe 4d4a 9cbe
000003b0: e08a 563e 3d52 84be 3218 97be d030 97be
000003c0: 72a1 d63c cb2f 9cbc 051a a63c ebe9 193d
000003d0: 70a7 31bd fef3 13bd edb0 0cbb 6269 973c
000003e0: 387a 97bd d370 88bd bc5f aabd cfe5 abbc
000003f0: b680 d7bc 8efb 42bd 261b bdbd bfab 45bd
-0.041244794 0.03799442 -0.0068020113 -0.0024001945 -0.029230246 -0.027786043 -0.041022174 0.033768337
0.04290029 -0.013222356 0.023324097 -0.027560072 0.001172657 -0.022248631 -0.013299117 0.028254624
-0.03711134 0.022729734 0.017193643 0.037864078 -0.056182727 -0.06025423 -0.0789034 -0.009307725
-0.08256183 -0.0863994 -0.09907716 -0.024989402 -0.017359199 -0.077266544 -0.05575112 -0.08316423
-0.0993747 -0.053226113 -0.06993749 -0.053962443 -0.023932083 -0.032967348 -0.08544108 -0.092354864
-0.053821202 -0.0551607 -0.032876756 -0.05578509 -0.095861785 -0.015873032 -0.045369927 -0.06563778
-0.045537695 -0.029710773 -0.044165526 -0.017052595 -0.06302308 -0.041590065 -0.09178231 -0.03986515
-0.016216058 -0.03682122 -0.04215307 -0.09522089 -0.10041257 0.0076114996 -0.04945737 -0.020536674
-0.04450064 -0.03976441 -0.052259386 -0.07699214 -0.058395434 -0.06714201 -0.102443025 -0.054160696
-0.016520858 -0.10347772 -0.06621567 -0.05494563 -0.00021008623 -0.09567533 -0.093768775 0.004670914
-0.04284358 -0.053195704 -0.0719906 -0.028151294 -0.029153742 -0.044065386 -0.07085312 -0.08450401
-0.029684193 -0.09209348 -0.08756681 -0.04277922 -0.062162265 -0.100450225 -0.016124662 -0.058084525
0.033266034 -0.0191978 -0.018036759 -0.010933287 -0.019474467 0.013140128 -0.030435372 0.005915236
-0.027993025 -0.081883535 -0.05723555 -0.06499956 -0.06013505 -0.061734825 -0.09811761 -0.04985564
0.034893554 0.0039216536 0.03886403 0.0025254497 -0.030809293 0.010278789 0.042443376 0.037978895
0.014511608 -0.04030453 -0.04166857 -0.01694093 0.00408934 -0.040604558 0.033773296 0.03867546
-0.03142539 -0.04131078 -0.045586735 -0.036236007 -0.029749025 -0.097264946 -0.03146919 -0.01676256
-0.04831351 -0.052411504 -0.09687854 -0.041947406 -0.025250766 -0.093453795 -0.025697054 -0.08877154
-0.058277607 -0.09725003 -0.08974756 -0.058638006 -0.0841339 -0.08428687 -0.06365871 -0.09724555
-0.07159817 -0.094585784 -0.04248196 -0.069604665 -0.030792544 -0.03585687 -0.100551136 -0.06950334
-0.023853732 -0.08592275 -0.023488294 -0.038362954 -0.08405779 -0.063925855 -0.04703283 -0.100984365
-0.01478562 -0.06012293 0.024769982 -0.07084233 -0.03538674 -0.033928465 0.013867151 0.021641664
-0.063546546 -0.059227046 -0.05298377 -0.048078522 -0.085145034 -0.06870627 -0.043552518 -0.089187644
-0.024232795 -0.039977755 -0.09524627 -0.05161913 -0.085929655 -0.07693202 -0.06144969 -0.051912513
0.039116457 -0.04151629 0.016563052 -0.023596924 0.013154732 0.02847085 0.016685346 0.034981005
-0.023097055 -0.08958518 -0.027176479 -0.04688554 -0.06222555 -0.069739155 -0.021129955 -0.045866128
-0.052726112 -0.02042588 -0.05740165 -0.095595695 -0.051261883 -0.059496764 -0.08979967 -0.10126315
0.04309859 -0.04312211 -0.0101468535 -0.033174712 -0.059575345 -0.08158728 -0.09518656 -0.07947294
-0.060727872 -0.049096916 -0.08562966 -0.08648124 -0.040645618 -0.10345406 -0.06713596 -0.043489367
-0.3225938 -0.31466693 -0.2742569 -0.30525437 0.20951414 -0.25843993 -0.29510647 -0.29529428
0.02620003 -0.019065758 0.020276079 0.037576597 -0.04337257 -0.03612136 -0.002146776 0.018482868
-0.07396358 -0.066621445 -0.08319041 -0.020983605 -0.026306491 -0.047603182 -0.09233694 -0.048259493

fc_layers.1.bias f4 [128]
00000000: b04d 40be 835e 4fbd bb0c 88be 1575 3140
00000010: 30cb c2be 2fbb 40be 3aee 19bf af9f 8fbe
00000020: d130 9cbc c227 f2bc 74b4 f6be 28b1 763e
00000030: 75f5 bfbe baa0 a2be 8ba5 8cbe 228f cabd
00000040: a9c6 a3be ead9 9ebd e9a2 b4bd 33a8 21bd
00000050: 8b98 85be 984e 5cbd 4e03 9f40 fbb0 99be
00000060: be0d 4d40 b0d5 bfbe 04db 66bf 6ceb 19bf
00000070: dc1d 12bf 64de f5be 1b93 c03f 1e8b 40be
00000080: a49f 92be 9236 c5be 52d2 78be 411c c8bd
00000090: 609b 6940 4078 5dbe 25a3 1fbe 62a0 5fbe
000000a0: 095c 6fbf 15a7 a0be b91a ccbe fe30 7c40
000000b0: f59c 9d40 a910 e9bd 86e8 4f40 66a7 d8bc
000000c0: 4031 fcbd dca0 8f40 23a1 18bf 9822 28bd
000000d0: 9a6a c3be 43bf 0fbf e6ea 8fbc c0d6 d340
000000e0: 3b90 d5bd 9064 83bc a413 abbe e08e e2be
000000f0: c964 80bd fb3c 12bf 0d73 9ebe a02d 43be
00000100: 2882 5b3f 1c65 98bc d702 d4be 5dc5 20be
00000110: 7c91 97be 12b4 20be ba94 28bf dd63 b0be
00000120: 6a25 e8be 7ff1 90be 9095 b9be bbc5 713f
00000130: 179b 4ebe 939d f1be 8cb0 f0bd bc0a 86bd
00000140: 8634 a9be a26d 0941 b2d0 b9be 6555 8ebd
00000150: 71b9 aabe cd4a 75bf 445a e6be 00dd 0bbe
00000160: 2c6c 2abd 3966 bcbe 257f bbbe f3a0 a5be
00000170: b33c 0dbd 938c 19bd eeb4 f7bc 6da3 02bf
00000180: c3f8 b3be 46f9 ebbe d751 dabe 8852 7c40
00000190: 3020 13be f3db 3ebe aea1 11bf 2055 7c40
000001a0: 26a1 85be 2524 2bbe 7984 c5bd 80e9 3dbe
000001b0: 8fdf e2be 6298 4ebd c96d b0be 121a bcbd
000001c0: bc9e 4bbe 9b2e 6ebe 56ca aabe 99f4 c9bd
000001d0: b4a9 a7be 0ce0 963f 2503 79be 29bd b1be
000001e0: 9391 51be 45cb 0dbd 17fc a0be eb40 0fbe
000001f0: 913c 1abf 71b0 0fbf b28e 29bf b629 ccbc
-0.18779635 -0.050627243 -0.26572213 2.7727711 -0.38045645 -0.18821405 -0.6012913 -0.28051516
-0.019066246 -0.029559974 -0.4818455 0.24091017 -0.37491956 -0.3176325 -0.2747005 -0.09890582
-0.31987503 -0.077564076 -0.08820135 -0.039467048 -0.26092944 -0.05378589 4.9691534 -0.30017838
3.2039638 -0.37467718 -0.9017794 -0.6012485 -0.5707681 -0.48021233 1.5044893 -0.18803069
-0.2863742 -0.38518196 -0.24298981 -0.09771014 3.6501083 -0.21627903 -0.15589578 -0.21838525
-0.9349981 -0.31377473 -0.39864138 3.9404902 4.92541 -0.11380131 3.248567 -0.02644701
-0.12314081 4.488386 -0.59620875 -0.041048616 -0.38167268 -0.5615122 -0.017568063 6.6199646
-0.104279004 -0.016039163 -0.33413422 -0.4424963 -0.06269223 -0.571243 -0.30947152 -0.19060373
0.8574548 -0.0186029 -0.41408417 -0.15700288 -0.29603183 -0.15693691 -0.6585194 -0.3445119
-0.45341045 -0.28309247 -0.3624692 0.9444234 -0.2017635 -0.47190532 -0.11752424 -0.06545016
-0.33047885 8.589266 -0.36292034 -0.069498815 -0.33344606 -0.9581726 -0.44990742 -0.13658524
-0.041607067 -0.3679674 -0.3662044 -0.32349357 -0.034481715 -0.037487578 -0.030237641 -0.5103062
-0.35150728 -0.46088618 -0.42640564 3.9425373 -0.14367747 -0.18638591 -0.5688733 3.9426956
-0.2609951 -0.16713007 -0.09644408 -0.18546104 -0.44311187 -0.050438292 -0.3445876 -0.0918466
-0.19884771 -0.23259966 -0.33357495 -0.098611064 -0.3274666 1.1787124 -0.24317606 -0.3471463
-0.20465688 -0.03461768 -0.3144233 -0.13989608 -0.60248667 -0.56128603 -0.6623336 -0.024922233

fc_layers.3.weight f4 [4, 128]
00000000: 8d60 8bbe cc8d 30bc 58a8 a23e eb70 cb3e
00000010: d759 34be eb91 c93d da95 6fbe 0325 353e
00000020: 2837 a5bc 9add 8a3c 1a41 04bd 5c01 813e
00000030: 6501 c03e 9769 a23d 6ed1 68bc 3551 503d
00000040: 43b5 88be 5c9c 643c ac4a 0c3e 4a5e 8cbd
00000050: df1e 183d 1554 99be 3b11 7e3f aaef 6d3e
00000060: 46cf 4ebf 539d fd3b a3f6 98bc 6689 83bd
00000070: b2df 9c3e 6c87 ebbd 08f4 a1be 537e 38bd
00000080: 7127 173e 153a cd3d 0612 4e3e 1ce3 73bc
00000090: 00d3 153f 9a5b 143d d211 97bc d74d 54b7
000000a0: 4987 71be 62a0 a6bd a2c3 97be 28f5 e73e
000000b0: 5b26 2b3f 4875 803d 9dd5 943f 76ce 4c3d
000000c0: 59a9 9bbc eb3d 0040 9d8a 313e 94c9 9a3b
000000d0: 90be 923e 6ad3 a5be bac4 103e bca5 dbbe
000000e0: 3bd3 05bd d449 113c 6a6d 17bd 35e2 b2ba
000000f0: ae11 3e3d 6a69 8c3e 3fb1 82bc 74ac c9be
00000100: 20eb a3bf 9efd a0bd 9e59 323d f4f7 243c
00000110: 9d55 fd3c e0a1 37be cfbd 6ebe 433d 9b3c
00000120: 8d2b e0bd 0a8f e1bd fbf7 b3be 37b7 543c
00000130: ed99 313e 9c3e 9fbd fc37 c73d f455 feba
00000140: e950 93be 5ad6 26bf 13ca adbe 8755 b6bb
00000150: 7bc4 cbbe 464f 8cbe 9bcd 51b9 d6ab 1bbd
00000160: 5a03 673d 9c6e 99be d874 abbe 931d abbb
00000170: ec7d e83d 4c14 d2bd bd07 18bc 1831 56be
00000180: 6033 833e 8ba5 a0bd a1e2 053e 92a9 a53e
00000190: 0eff 583d aaad b3bd 63e7 9d3e 9de5 0240
000001a0: b038 af3c d948 78bd 829e 1ebe 1513 be3c
000001b0: 29d5 79bb 8535 9abe 42e8 b43b dd70 03be
000001c0: 9859 0ebd 9150 9c3d 33a5 0bbe a4fb c13d
000001d0: 06a6 29be d098 f9be bd93 993e 0851 50be
000001e0: f8a0 c83e 2be7 fc3c 0487 b2bc 4a4b 49bd
000001f0: b3dd 9dbd e695 51be 6e72 2b3e 556e ec3d
00000200: f4b5 873e acd3 65bd a1cc afbd 29df b63e
00000210: ee20 e5bc c1e8 6f3e 27aa 943e 702a 803d
00000220: c3e9 d73d 3622 fbbb e56d 49bd 788b 0a3e
00000230: b6df 643e 4b37 373e 9344 cb3d b45c b13c
00000240: e725 b6be d851 d93b b09e 7e3e f1c6 88bd
00000250: e153 a7bd ec4f bcbd 4589 4340 ceee 073e
00000260: 7722 1a3f 76ab b1be 9a22 ff3e 0df1 fc3b
00000270: a909 8b3e 039f 693d 1d31 493f 0d87 bf3d
00000280: e270 b7bd 126a 00be 8691 923e aa0c 3cbd
00000290: a5d9 443f 6558 f43a acb3 8abe ed0c 5abd
000002a0: 81e2 f0bc 335a 46bc c345 953e 757f 043e
000002b0: 5ce0 c33f e066 173d 2897 b53f a7e2 ee3d
000002c0: d9d5 d8bd ce60 0e40 c295 033e 4b32 aa3c
000002d0: d189 ac3e ad11 52bc b233 453b e029 cdbe
000002e0: c03e 1b3d 3d05 5c3d 1911 ef3c ed33 8abd
000002f0: d71d 883d 55a4 1b3e b1e1 653c cb31 e6be
00000300: 7877 883f 90be a7bd 0814 fe3d c614 b53d
00000310: 218a 503e f6f2 9e3e 65ad b73d 2788 9bbe
00000320: ff72 31be 47b1 4b3a 9650 9ebe 684a 3c3f
00000330: ebec b63e 6f0d 5d3e 5c8e 9abc 8755 0cbe
00000340: 9248 813c 8254 2fbf 9e6c 8bbe 7fdb 213d
00000350: 976f edbe 58d2 cdbe 4add 1bbd fbd0 523d
00000360: 7794 b6bb 64e9 b0bd 7402 4e3e 32bc 413e
00000370: 11aa f93d 8f30 eabc d46c 673d 15e9 403e
00000380: f82c b73e 0873 edbd 75f9 6d3e 0800 b53f
00000390: ff62 11bd 23fa 8cbd 5c50 92be f5ec e63f
000003a0: 3d1f 863d 03b1 3a3e f167 22bc 38c9 15be
000003b0: 392d 9b3d b15b 5bbe 85dc 8a3d 9231 02bc
000003c0: f30d 0e3e 779e e23d 2931 993c efa4 3cba
000003d0: bb16 cdbd 7124 a13d 90b5 f1bd 7756 d2bd
000003e0: 0c25 9a3e ba49 b1bc fb48 aebd f1ae 2bbd
000003f0: fcf0 1c3c b496 89be 2105 7abd aa9d 0b3e
-0.272221 -0.0107759945 0.3176906 0.39734587 -0.17612396 0.09842285 -0.23397008 0.176899
-0.020167902 0.016951371 -0.03228865 0.2519635 0.37501064 0.07930296 -0.014210088 0.050858695
-0.26700792 0.013953295 0.1370036 -0.06853922 0.037138816 -0.29946962 0.9924504 0.23235956
-0.80785024 0.007739702 -0.018672293 -0.06422691 0.30639416 -0.11500439 -0.31631494 -0.045042347
0.1476114 0.10020844 0.20124063 -0.01488569 0.58525085 0.03622017 -0.018441115 -1.2654308e-05
-0.23586763 -0.08136059 -0.29641443 0.45304227 0.668554 0.062723696 1.162769 0.050001584
-0.01900165 2.0037792 0.17338033 0.004723737 0.28661013 -0.3238786 0.14137545 -0.42899883
-0.03267215 0.0088677 -0.03696958 -0.0013647737 0.04640358 0.27424175 -0.015953658 -0.39389384
-1.280613 -0.07860874 0.043542497 0.010068882 0.030924613 -0.17932844 -0.23314594 0.01895011
-0.10945807 -0.11013611 -0.35150132 0.012983135 0.17343874 -0.07775614 0.09727475 -0.0019404278
-0.28772667 -0.65170825 -0.33943233 -0.005564395 -0.3979834 -0.2740423 -0.00020008387 -0.038005672
0.05639968 -0.299672 -0.33487582 -0.0052220314 0.11352143 -0.102577776 -0.009279189 -0.20917165
0.25625134 -0.07844075 0.13074733 0.32355934 0.052977614 -0.08773358 0.30840597 2.0452645
0.021389335 -0.060616348 -0.15490153 0.023202458 -0.0038121438 -0.30118957 0.0055208514 -0.12836023
-0.034753412 0.07632554 -0.13637237 0.09471825 -0.16567239 -0.487494 0.29995528 -0.20343411
0.3918531 0.030871948 -0.021792896 -0.049144067 -0.077083014 -0.20467338 0.1674287 0.11544482
0.26506007 -0.05611007 -0.08583952 0.35717133 -0.027969804 0.23428632 0.29036066 0.06258094
0.105426334 -0.0076639904 -0.04917707 0.13529766 0.22350964 0.17892186 0.09925189 0.02165065
-0.35575792 0.006632071 0.24865222 -0.0667857 -0.081702955 -0.091949314 3.0552533 0.1327469
0.6020884 -0.34701127 0.49831086 0.007719165 0.27155808 0.05703641 0.78590566 0.09351931
-0.089570776 -0.12540463 0.2862665 -0.045910515 0.768946 0.0018642066 -0.27090204 -0.053234983
-0.02940488 -0.012106466 0.29154786 0.12939246 1.5302844 0.036963344 1.4186754 0.11664324
-0.10587663 2.2246585 0.12850097 0.020775935 0.33698896 -0.012821597 0.0030090627 -0.4007101
0.03790164 0.053715933 0.029182957 -0.06748185 0.066463165 0.15199406 0.01403086 -0.44959864
1.0661459 -0.08190644 0.124061644 0.08841853 0.20365192 0.3104474 0.08968619 -0.30377313
-0.17329024 0.0007770252 -0.30920857 0.73551035 0.3572763 0.21587156 -0.01886671 -0.13704501
0.015781675 -0.68488324 -0.27231306 0.03951597 -0.463742 -0.40199542 -0.038052835 0.05146883
-0.0055718976 -0.08638266 0.20118123 0.18919447 0.12190641 -0.028587608 0.05650027 0.18838914
0.35776496 -0.11594206 0.23239692 1.4140635 -0.0354948 -0.06883647 -0.28576934 1.8041064
0.06548927 0.18231587 -0.009912477 -0.1462754 0.07576985 -0.21421696 0.06780342 -0.007946389
0.13872509 0.11065381 0.0187002 -0.0007196208 -0.10014101 0.07868279 -0.118022084 -0.10270398
0.3010639 -0.0216416 -0.08510014 -0.041914884 0.0095789395 -0.2687279 -0.061040048 0.13634363

fc_layers.3.bias f4 [4]
00000000: 2cb8 263e 1385 f040 b831 f63f 1cb9 1340
0.16281193 7.5162444 1.9233923 2.3081732
